src/content/MoodSongs/modelScaleLessLayers-paraphrase-multilingual-MiniLM-L12-v2-0.20919651498372202-classifier.pt (torch, 433823 bytes, 10 tensors)

fc1.weight f4 [192, 384]
000000 b2 78 50 3d 7a df 8a 3c e2 32 f4 3b 7a 8a 90 3d
       0.050896354 0.016952265 0.0074523548 0.07057662
000010 78 97 54 3d 66 8e e2 bc 7e 41 a1 3c d0 d5 03 bd
       0.051902264 -0.027655791 0.01968455 -0.03218633
000020 4c 9e 1c bb b5 1f a7 bd 78 7e 83 3c e3 6a 41 bd
       -0.0023898063 -0.081603445 0.016051516 -0.047221076
000030 08 0a fe bd 9d cb 94 3c 2d 1d 0d bd 28 fa 08 3d
       -0.12404257 0.018163497 -0.034451652 0.033441693
000040 4a af 5c bc 3b a4 6b 3c 64 9b 92 bd 1e a3 3a bc
       -0.013469527 0.014382417 -0.07158545 -0.011391429
000050 ba d8 3e 3d e9 90 00 3d 91 09 61 bb bb 45 94 ba
       0.046593405 0.031388197 -0.0034337977 -0.0011312285
000060 72 1c 17 bd a1 01 84 3c 60 97 31 3d 56 3b fa bc
       -0.036892362 0.016114058 0.043357253 -0.030545872
000070 42 f8 9e bc 23 31 f4 3c 10 c0 d0 bc f7 9d 54 3c
       -0.019405488 0.029808586 -0.025482208 0.012977115
000080 3b 40 9a 3d 18 f4 a0 bb 67 ee 93 bd 16 5f 02 bd
       0.07531782 -0.0049119107 -0.07223206 -0.031828962
000090 13 fb 84 bb d7 fa 90 bb e8 54 84 3d bc 8b 85 3d
       -0.0040582507 -0.0044244337 0.06461507 0.06520793
0000a0 73 e7 3d 3d d3 35 2c bd db 18 dc bc 78 06 3c bd
       0.046363305 -0.04204352 -0.02686732 -0.045904607
0000b0 57 5b aa 3c 60 2b 3c 3c 53 1e 20 bd 14 09 bb bb
       0.020795507 0.011484951 -0.03909142 -0.0057078693
0000c0 a5 97 08 bd ac cf 8e bc 31 b8 01 bb e5 f7 ec 3c
       -0.033347744 -0.01743301 -0.0019793625 0.0289268
0000d0 96 85 30 bd ba e0 56 bc fc 24 16 bc 33 22 fb 3c
       -0.043096147 -0.013115102 -0.009164091 0.030655956
0000e0 9f bc 94 3c 87 ee 87 bc 99 01 d8 3d 60 1d 89 3c
       0.018156348 -0.01659323 0.1054718 0.01673764
0000f0 02 2d be bc 67 a8 3b 3c 1c f5 d5 3d be 76 62 3a
       -0.02321482 0.0114537245 0.104471415 0.000863891
000100 c2 2f 92 bd 47 7a 55 bd 68 2b a8 bc cf 00 8b 3d
       -0.07138015 -0.052118566 -0.02052851 0.067872636
000110 c6 fd b6 bb ce ba 9d bd 38 77 ca 3c 3c cc 3e 3d
       -0.0055844514 -0.07701646 0.024715051 0.04658149
000120 e2 8d 3d 3d 2b a4 1b 3c 64 ca 57 bd 81 33 9b 3d
       0.046277888 0.00949959 -0.05268325 0.07578183
000130 7b e5 63 bd e3 c9 0d bb 08 45 3a bb 7e 69 08 3d
       -0.05563877 -0.0021635226 -0.0028422493 0.03330373
000140 4b 70 0c bc 5c 56 4f bc 61 7b 49 bd 3c 3a 94 3c
       -0.008571695 -0.012654867 -0.04918993 0.018094175
000150 87 34 63 3d 47 c5 2d 3d 19 1d 38 3d 2f db 66 bd
       0.055470016 0.042424466 0.044949625 -0.056361374
000160 8d 2d 42 3d 82 f9 2d bd 70 2e 62 bb e4 51 c6 3b
       0.04740672 -0.042474277 -0.0034512542 0.0060522426
000170 e8 64 a1 bd 11 78 50 3d 5c e5 83 bd c0 47 ac 3c
       -0.078805745 0.050895754 -0.06440231 0.021030307
000180 f9 02 46 bd f0 7c b7 bc 7e 1a d0 bc 5d 00 c2 3b
       -0.04834268 -0.022398442 -0.025403257 0.0059204535
000190 06 31 1c 3d 9f 6f 34 3d 66 7c 1a 3d bb e3 d6 3c
       0.03813269 0.044051763 0.03771629 0.026231637
0001a0 be 51 98 3c e9 c5 0f bc 24 13 29 bd c9 46 8b 3b
       0.018593665 -0.008775213 -0.04127802 0.0042503816
0001b0 fd 6f dc bc 74 6f 41 bd bb 06 7f 3d 49 c6 f9 3c
       -0.026908869 -0.04722543 0.062262278 0.030490058
0001c0 06 a2 48 3d 8d 1a 16 3d 62 e4 77 3b b9 28 f3 3c
       0.048982643 0.036646415 0.0037825336 0.029682504
0001d0 b3 9c 0b bc 0f ba 69 3c d9 29 01 3d 28 4d 68 3d
       -0.008521247 0.014265551 0.03153405 0.056714207
0001e0 4b ae c4 bd 2a 93 17 bd 24 02 8b 3b f2 6f a4 3b
       -0.09603556 -0.03700558 0.0042421985 0.0050182277
0001f0 29 67 74 bd 94 92 8e bd 95 a7 49 3d fd 3a 58 3c
       -0.059668694 -0.06961551 0.049232084 0.013197658
000200 a0 74 bd bc 1c 76 3d 3d 7d f1 fb 3c 8b 20 bd 39
       -0.0231269 0.046255216 0.030754799 0.00036073136
000210 02 78 80 bc fb fc f4 bc a7 9d aa 3c 0e 05 2e bc
       -0.015682224 -0.029905787 0.020827128 -0.010621322
000220 eb 89 ab bd ae 41 7b 3d 4a 34 cd 3c 8b 54 8b 3c
       -0.08375915 0.061341934 0.025049347 0.017008087
000230 1c ad b9 3c 14 b5 dc bc 48 e9 0f 3e e5 24 2b bd
       0.022665553 -0.026941814 0.14053833 -0.041783232
000240 bc 00 f9 bc 1e d3 31 bd fe 28 48 3d eb e7 7d 3d
       -0.030395858 -0.043414228 0.04886722 0.061988752
000250 6b fb bf 3d 3c 0f ed bd fb d0 dd bc 56 e7 40 3d
       0.09374126 -0.11575171 -0.027077189 0.04709562
000260 a8 be 03 bd bb 44 ca bd 19 f0 0b bc 49 be 42 bb
       -0.032164246 -0.098763905 -0.00854113 -0.002971547
000270 23 a0 cc 37 59 32 74 bd 86 df f0 bc f5 d0 39 bc
       2.4393265e-05 -0.059618328 -0.02940346 -0.011341323
000280 ba 3e bb 3c bd 90 8f 3c 7e 5d 24 bc 8f 23 e8 bc
       0.022857059 0.017525071 -0.010032056 -0.028337268
000290 8d 77 36 bd 37 49 df 3c 3c 8c 8d bc 0a 02 a3 3d
       -0.044547606 0.027256591 -0.017278783 0.07959373
0002a0 1c 81 28 bc f8 67 75 3d ea a5 c8 3c b1 0f 2b bd
       -0.010284688 0.059913605 0.024493176 -0.04176301
0002b0 ae 86 15 3d 47 44 cc bc 36 6b 3c 3c d0 d5 6a bb
       0.036505394 -0.0249349 0.01150017 -0.0035833009
0002c0 96 00 84 bd 39 f4 9c 3c be ef 43 bd 24 2b 49 3d
       -0.06445424 0.019159423 -0.047836058 0.049113408
0002d0 42 9f ee bc 7d 7b e6 3c 18 a0 d2 bc 0b 91 97 bc
       -0.029128674 0.028135056 -0.025711104 -0.018501779
0002e0 d8 7d 58 3d ab 35 15 3d 7c ad 4f 3d b6 e9 81 bd
       0.05285439 0.036428135 0.050702557 -0.06343405
0002f0 2c 76 ab 3c bd 48 56 bd fc 35 7c 3c b9 3d 1c bd
       0.020930372 -0.052315462 0.01539373 -0.0381448
000300 7f e8 1a bc 6f 15 90 3d 07 17 29 3d ab d4 10 3d
       -0.009454845 0.07035338 0.041281726 0.035359066
000310 2c 79 85 bd 2c 4c 3a 3d 57 ea 04 bb a3 0a 6d bc
       -0.06517252 0.0454828 -0.002028128 -0.014467868
000320 60 10 ff bc e0 20 95 bd 79 ec bf 3c cd 3f f5 bc
       -0.031135738 -0.07281661 0.023428189 -0.02993765
000330 93 b9 57 3d 42 df 5b 3d 22 c3 85 3d c9 3b 87 bc
       0.05266721 0.053679712 0.06531359 -0.016508
000340 fa de 17 bd 76 72 2c 3d 6e 3a aa 3d fa 65 71 3b
       -0.03707788 0.042101346 0.08311926 0.0036834464
000350 c8 db e2 bc 90 b8 f6 3c 7f 13 74 3d 76 3e 85 3d
       -0.02769269 0.030117303 0.059588905 0.06506054
000360 db 79 40 bd 96 5e 06 3d 32 3e 1b 3d d5 80 a3 3d
       -0.04699121 0.032805048 0.03790111 0.07983557
000370 2e 43 8f 3d 91 df 9a 3b a6 59 bf 3d 1d 1d 0d 3d
       0.069952354 0.004726358 0.09343271 0.034451593
000380 62 d8 4e bc e4 f5 65 bb 6b 99 c4 3c 36 fd 81 bd
       -0.012624832 -0.003508919 0.023998937 -0.06347124
000390 0c b7 bc 3c b4 2b f8 3c 71 2d 34 bd 45 fd 4c 3d
       0.023036502 0.030294277 -0.04398865 0.050046224
0003a0 91 9f 90 bd 44 95 bc 3c 5e 31 48 bd 58 5d 8d bd
       -0.07061685 0.023020394 -0.048875205 -0.069025695
0003b0 f7 0d d5 bb 7c 95 59 bd 1d 1a cb 3d 35 f0 5a 3c
       -0.006501909 -0.053121075 0.0991709 0.013362934
0003c0 dd f5 f1 3c b7 46 26 bd 0d 20 9b bc 4b e6 d0 3c
       0.029536182 -0.040594783 -0.018936181 0.025500437
0003d0 7e ae 13 bd 0e 1c b3 bc bc 19 ac 3d 1a 7c 45 bd
       -0.03605508 -0.021863963 0.08403346 -0.048214056
0003e0 b9 31 50 bd 9d b7 3e bb 7a 34 b4 bb c3 2f 5e 3d
       -0.05082867 -0.0029101141 -0.0054994198 0.054244768
0003f0 12 92 d5 bc 35 73 3c bd 4d 71 18 3c 8f 79 f8 bc
       -0.026070628 -0.046008307 0.009304357 -0.030331401

fc1.bias f4 [192]
000000 e7 b6 98 3d 64 e7 a0 bb dd 4b 26 3d 63 1a 02 3d
       0.07456761 -0.0049103964 0.040599693 0.031763446
000010 85 a4 83 3d c1 b9 32 3c 9e ae 81 3c 32 b5 47 bc
       0.06427864 0.010908545 0.015830334 -0.012189196
000020 63 67 39 bb 42 e7 46 3d cc 05 7c 3d 98 76 4a 3d
       -0.0028290383 0.04856039 0.061528966 0.049429506
000030 b2 b4 8f 3d 03 6c 05 bc 69 00 2b bd 08 04 a0 3d
       0.07016887 -0.008143428 -0.041748438 0.07813269
000040 0e 40 0a 3c bd 8e 4f bc 5e 29 16 bd 0f 8c c6 bb
       0.008438123 -0.012668309 -0.036660545 -0.0060591768
000050 86 d1 28 3d 90 36 ce 3c 03 56 f0 bc 94 ec 5c 3c
       0.041215442 0.025172502 -0.029337889 0.013484139
000060 b8 9d ae 3c dc 33 b8 bc 41 3c 99 3c 08 5f d0 bb
       0.02131544 -0.022485666 0.01870549 -0.006358985
000070 44 0a dc bc 5b 4b 2c 3c 45 80 1e bc 79 45 8e 3c
       -0.026860364 0.010516013 -0.0096741365 0.017367112
000080 46 23 84 bd 39 a2 55 3d d4 a4 b1 3d e6 06 f6 bc
       -0.064520404 0.05215666 0.086740166 -0.030032586
000090 65 9f 33 3d 28 0c 0b bc 61 e8 11 3c fe 06 7b 3d
       0.043853182 -0.008486785 0.008905501 0.061285965
0000a0 94 5e 2d bd bf 32 c3 bc b8 d9 11 3d d4 39 8a bc
       -0.042326525 -0.023827909 0.035608023 -0.016873278
0000b0 9a c3 7d 3d 3f 29 31 bc f8 a1 9a 3d 86 88 fa 3c
       0.06195412 -0.0108130565 0.07550424 0.030582678
0000c0 0b 2f 0c bc e8 47 ba bc ef 40 9f 3d 44 b5 29 bc
       -0.008556138 -0.022739366 0.07776057 -0.0103581585
0000d0 60 27 73 bc d5 07 55 3a c3 7e ad 3b 50 66 99 bb
       -0.014840931 0.0008126472 0.005294652 -0.004681386
0000e0 71 fc 33 3d ca 18 58 bd f2 5e 80 3c 74 fb 38 bd
       0.04394192 -0.052758016 0.015670273 -0.04516168
0000f0 e1 30 ca 3c 58 ef 8a 3c 83 31 64 bd 50 e2 c5 3c
       0.02468151 0.016959831 -0.05571128 0.024155766
000100 cf c7 f1 bc a8 6c e6 bc 11 14 5d bd 88 09 f4 bb
       -0.029514221 -0.028127983 -0.053974215 -0.0074474253
000110 ad 7b 8b 3d e4 5d 23 3b 36 2e 9f bc 9d f1 53 3d
       0.06810699 0.002492779 -0.019431215 0.051744092
000120 a0 c7 ac bc 2a fc 12 3d 60 eb a9 3d c2 32 2e 3c
       -0.021091282 0.035885014 0.08296847 0.010632219
000130 d7 22 24 bd e7 c0 30 bc ff c6 9e 3d 9a 5e 94 3d
       -0.04007229 -0.010788179 0.07752799 0.07244606
000140 bc 7d b1 3d 2c a3 08 3c 40 35 76 bd 2f da c4 3b
       0.0866656 0.008339684 -0.060109377 0.006007455
000150 c2 95 ac 3b 2d ea 19 3c a7 d5 2f 3c 9c 23 f4 bc
       0.005266876 0.009394211 0.010732091 -0.029802136
000160 15 fd 16 3d 5e 94 b7 bb 90 be c1 ba cb 5f 40 3d
       0.03686245 -0.0056024035 -0.0014781523 0.046966355
000170 84 3d b1 3c 1c 07 b0 3b ec a4 89 3c a4 c5 3e bc
       0.021635778 0.0053719413 0.016802274 -0.011643801
000180 f9 cd 2a 3c a4 33 8c bd 98 a9 09 bc a0 ec 7a bd
       0.010425084 -0.06845787 -0.008402251 -0.06126082
000190 0c f7 02 3d e4 fe 4c 3d d9 e8 52 bc 89 b1 12 bd
       0.031973884 0.05004777 -0.012872898 -0.035813842
0001a0 83 b8 26 3c ed 30 be bb d3 93 82 bd 74 05 89 3d
       0.010175827 -0.0058041723 -0.063758515 0.06690493
0001b0 49 05 9f 3d ce 0a db 3b 35 b7 43 3b 2a ff 14 bd
       0.0776468 0.0066846376 0.0029863839 -0.036376156
0001c0 c5 5e a2 3d 55 37 91 bc 64 02 07 bc 90 56 77 3c
       0.07928232 -0.01772658 -0.008240316 0.015096322
0001d0 da d8 25 3d 5c 2e 07 bd d7 d5 b1 bc 01 b2 64 bd
       0.04049001 -0.033003196 -0.021708412 -0.05583382
0001e0 34 a1 ad 3c 23 f7 16 3d 9f 77 06 3b 63 5d 99 3d
       0.021195032 0.03685678 0.0020518077 0.07488515
0001f0 86 de e3 3c 49 bd 7b 3d f3 9c 93 3b 27 59 84 3d
       0.027816068 0.061459813 0.004504794 0.06462317
000200 1c d0 a3 3b 41 9f a0 ba 69 28 4d 3c 81 2a 62 bd
       0.004999174 -0.0012254493 0.012521842 -0.055216316
000210 99 ce f2 3c b9 64 47 3c 85 09 3f bd a3 03 b8 3c
       0.029639529 0.01217001 -0.046639938 0.022462672
000220 60 9d 34 3c c8 28 cd 3c 79 43 15 3d 7a cc a8 bc
       0.011023849 0.02504386 0.0364413 -0.020605315
000230 fa 67 72 bd 85 cb 04 bc 06 46 21 3d f2 dd 66 3d
       -0.05918119 -0.008105163 0.03937342 0.056364007
000240 28 e5 7d bc 98 d4 2f 3d 03 8c 24 3d c5 43 01 3d
       -0.01549653 0.042927355 0.040172588 0.03155877
000250 3e 8d 9c 3c eb 99 18 bd ec 01 c8 bc 84 cc 60 3b
       0.019110318 -0.037256163 -0.024414979 0.0034301588
000260 37 a9 60 bb 41 54 5f 3d ff 28 40 3d af da 06 bd
       -0.0034280547 0.05452371 0.046914097 -0.032923397
000270 c0 93 6b 3d 5f 0b 73 3d 35 68 df bc 81 db ec bc
       0.057513952 0.059337016 -0.02727137 -0.028913261
000280 96 ee 37 bd c2 32 b9 3d 4b 27 ff bc 59 85 2f 3b
       -0.044905268 0.090428844 -0.031146666 0.0026782362
000290 d0 9a 24 3b 4d 8c 9c 3d e2 74 3a bd 22 7a 06 3d
       0.002511669 0.07643948 -0.045521624 0.03283132
0002a0 71 42 d0 3c 11 27 ac 3d a0 06 a9 3d 40 e1 88 bb
       0.025422307 0.08405889 0.08253217 -0.0041772425
0002b0 c5 f0 88 3d db 14 36 bd 8f 83 b9 3d 27 d1 91 3c
       0.06686548 -0.044453483 0.09058296 0.017799927
0002c0 b5 d5 81 3d 4f c7 ee bc d9 da 1b 3b 0d 9e 94 3a
       0.063395895 -0.029147772 0.0023781566 0.0011338607
0002d0 88 6f 26 3d 51 b9 39 3d 45 a0 53 3d 03 a8 23 bc
       0.04063371 0.045342747 0.051666517 -0.009988788
0002e0 1b 9c b2 3d 3c f8 06 bc cd 75 36 3d 12 97 5a bd
       0.08721181 -0.008237895 0.044545937 -0.053366728
0002f0 27 93 22 bd 26 0f 69 bd 67 80 dc 3c de cf f8 bc
       -0.039691117 -0.056899212 0.026916696 -0.030372556

fc2.weight f4 [96, 192]
000000 65 2e a8 bd 7d 93 eb 3a ab 45 af bd 58 45 90 3d
       -0.08211974 0.0017973032 -0.0855821 0.07044476
000010 91 eb 3f 3d 95 5b 44 3d bb b9 38 bd 92 e7 e8 bc
       0.046855513 0.047938902 -0.045099 -0.028430734
000020 7d 93 a6 bd 43 ce 0e bd 37 db 91 3d 37 3d 26 bd
       -0.081336 -0.034864675 0.0712189 -0.040585723
000030 52 76 ee bc 93 89 02 3d 60 ad 5d bd 3c c0 ae bd
       -0.029109154 0.031869482 -0.05412042 -0.085327595
000040 be d9 42 3d 8c 46 15 3d 7b 57 a1 3a 94 b4 6e 3d
       0.047570936 0.036444232 0.0012309396 0.05827768
000050 4b 5c 3e 3d a6 80 7a 3c 71 d2 21 bd 6e f6 1b 3c
       0.046474736 0.015289461 -0.039507333 0.009519203
000060 d0 e9 82 bd 1d 07 a5 bd 00 f9 6c bc 00 91 8e bc
       -0.063922524 -0.080579974 -0.014463663 -0.017403126
000070 71 40 12 bd c0 4a 8d 3c 93 5a a0 3c 1b 50 fa 3c
       -0.035705987 0.017247558 0.01957444 0.030555775
000080 a1 d3 82 bd 38 69 31 3d 65 b6 74 3c 7d 02 58 bd
       -0.06388021 0.043313235 0.014936064 -0.052736748
000090 07 51 67 bd 86 2d cb 3c 9c dd ac 3d 8a 12 5e 3d
       -0.056473758 0.02480198 0.08440706 0.0542169
0000a0 2f 53 61 bd 23 2b 97 bc 37 7b 0d 3c 3d d0 46 3d
       -0.05501097 -0.018453186 0.008635334 0.048538435
0000b0 4f 6a bb bd d0 b5 36 3c 0a 7a 45 3d df 51 86 bb
       -0.09151136 0.011151746 0.04821209 -0.0040991153
0000c0 87 85 be 3c 3b 19 48 bd dd 42 e1 3c 0b 68 aa 3c
       0.02325703 -0.048852187 0.027497703 0.020801565
0000d0 46 8c 97 bb 13 ef eb bc ab e6 16 3b 65 76 9e 3d
       -0.004624876 -0.028800523 0.0023025672 0.07737426
0000e0 81 60 10 3d 71 c1 20 3d f3 32 83 bd 37 ce b8 3d
       0.035248283 0.03924698 -0.06406202 0.09023707
0000f0 fe 17 2a 3a fa 56 86 bd 24 a0 b2 bd 04 18 19 bd
       0.00064885605 -0.06559558 -0.08721951 -0.03737642
000100 9f db 8a 3d 17 f7 61 3d fc 8b 48 bd 9e eb 1c 3d
       0.06780171 0.055167284 -0.048961625 0.03831064
000110 7a b2 bf 3c 52 af 81 bd a4 23 a5 bd 9a a8 94 3c
       0.023400534 -0.06332268 -0.080634385 0.018146802
000120 86 fb 55 bd 7d 30 01 3d e1 39 82 bd 00 7e 2b 3c
       -0.052241825 0.031540383 -0.06358696 0.010467052
000130 6f 9b 99 bd 2e d8 76 3c 85 28 a5 bd 0c 35 1b 3d
       -0.0750035 0.01506619 -0.08064369 0.037892386
000140 5f b8 22 3d 3b 8e 97 3d 2e f1 95 3d 62 38 e2 3b
       0.03972661 0.07400175 0.07321392 0.006903694
000150 78 ab 97 bc fd cd 3b 3d 4c 57 89 3c 02 bd 22 3d
       -0.01851438 0.045850743 0.01676526 0.039731033
000160 85 65 9d bd e5 8c a3 3d 0a 1f ec 3c 60 73 4d bd
       -0.07685379 0.07985858 0.028823394 -0.05015886
000170 09 c8 58 bd 4e fd d6 bc 4d bc 26 bc 30 04 39 3d
       -0.052925143 -0.026243832 -0.01017673 0.04517001
000180 9a f2 68 3d 08 12 8c 3d 07 3b 35 3c 98 16 be bb
       0.056871988 0.06839377 0.0110614365 -0.005801033
000190 cc 93 9c 3d fc 3a 61 bc e2 03 44 bb ca 1b 74 bc
       0.076453775 -0.013746973 -0.002990954 -0.014899204
0001a0 57 8a 97 3d 25 b3 d6 bc a8 43 5e bc 0f 72 b0 bc
       0.07399433 -0.02620847 -0.013565935 -0.021538762
0001b0 b0 09 30 3d 8c af 01 bd 30 11 6f 3d 1b ef a5 bc
       0.04297799 -0.031661555 0.058366 -0.020255616
0001c0 1d 84 02 bd da a7 2b 3d b8 28 8c 3d f4 1f 51 bc
       -0.031864274 0.041908123 0.06843704 -0.012763966
0001d0 8a 84 5c 3d 44 8f ef 3c 41 bd 68 bc 84 6b 0e bd
       0.053837337 0.029243119 -0.014205278 -0.034770504
0001e0 a2 59 17 3b 46 70 da bb b2 9c 12 3d de 85 24 bd
       0.0023094197 -0.006666216 0.035793968 -0.04016673
0001f0 14 97 be 3d 07 14 fa bd a3 1c 80 bd 98 f8 9a bc
       0.093061596 -0.12210851 -0.06255462 -0.018917367
000200 c6 e6 71 bd 27 fc 2b 3d b7 61 43 3d 69 a6 6b bd
       -0.059057973 0.041988518 0.04770061 -0.057531748
000210 3d 07 63 3d ac 7f 80 3d 13 3f 36 3d dd 8a 94 3d
       0.055426825 0.062743515 0.044493746 0.072530486
000220 a0 bb 11 bd d8 8b a3 bd 1d 4b af bc 22 dd 22 bc
       -0.035579324 -0.079856575 -0.021398121 -0.0099404175
000230 13 00 ae 3b db 6a 86 3c b5 c5 1b 3d 90 cb 95 3d
       0.0053100674 0.016408375 0.038030345 0.07314217
000240 4b b6 0e bd 1d 8d 46 3d ad cf 10 bd 6d 92 97 3d
       -0.034841817 0.04847442 -0.035354305 0.074009754
000250 be c1 39 bd e9 3e d8 3c e5 cf 17 3d ad b8 d1 3c
       -0.045350783 0.026397185 0.037063498 0.025600756
000260 d2 d8 1a 3d 07 20 0b 3d 8f c6 0b 3d c6 63 b7 3c
       0.037804432 0.03396609 0.034124907 0.022386443
000270 59 fe 64 bd 8f f4 74 bd 44 26 85 bd 02 d1 20 3d
       -0.055906627 -0.05980354 -0.06501439 0.039261825
000280 03 f4 70 3d 80 78 e7 bc 87 b2 a0 3d af 1e 82 3c
       0.058826458 -0.028255701 0.078465514 0.015883772
000290 b6 5b d8 3b fa d1 01 3d bf b3 72 3d 2e 11 9d 3d
       0.0066027297 0.03169439 0.05925345 0.076692924
0002a0 b2 36 09 3c 8d ed 9c 3d d3 e6 65 3c 70 9a 27 3d
       0.008374857 0.07662497 0.014032084 0.040918767
0002b0 b8 51 a6 bd 96 43 59 bd cb 1d ac bd fc 99 81 3d
       -0.08121055 -0.05304297 -0.0840412 0.06328198
0002c0 87 8b 7b 3b 51 ac e7 3c a9 7b bf bd 0d e1 5a bc
       0.0038382725 0.028280409 -0.09349758 -0.01335932
0002d0 0f f9 fd 39 fa ef 26 3d 11 92 8e 3d f1 4f f0 3c
       0.00048441484 0.040756203 0.06961454 0.029334994
0002e0 56 2b a2 bc dc 1b b0 bd f6 5f 33 bd f1 1e f8 bb
       -0.019796055 -0.08599064 -0.043792687 -0.007572048
0002f0 41 e6 41 bd 88 2a 28 3c 2f e7 58 3d 7d aa ad 3c
       -0.047338728 0.0102640465 0.05295485 0.02119946
000300 c3 96 92 3d 73 18 e4 bc fd c2 10 bc ef aa 22 3d
       0.07157662 -0.02784369 -0.008835551 0.039713796
000310 6a 4d 73 3d fc f5 d4 3d 3a b9 d2 3d 2e 1d 6a bd
       0.0594 0.1039848 0.102892354 -0.057156734
000320 8b ce 30 3d 96 17 07 3d f8 dd a0 bb 53 b7 89 3d
       0.043165725 0.032981478 -0.0049092732 0.067244194
000330 26 d3 7b 3d af de 64 3d bd df 33 bc c3 2b fd 3b
       0.061480664 0.05587643 -0.010978636 0.007726164
000340 23 eb 09 3c da b3 80 3d 91 42 d6 3b 53 c9 c2 bb
       0.008417877 0.06284304 0.006538697 -0.00594441
000350 90 ab fc bc 33 6a 38 3d cc ce 37 bc 63 3d aa 3d
       -0.030843526 0.045023154 -0.011218738 0.0831249
000360 83 2c aa 3d 8d cd 2f bd f6 b6 6c 3d bb 33 6c 3d
       0.08309271 -0.042920638 0.057791673 0.05766652
000370 c8 61 68 bd c6 86 4f 3d 5e 75 14 bd 8a d5 a0 bc
       -0.056733876 0.05066564 -0.036244743 -0.019633073
000380 f6 71 f0 3d a0 3a 2f bd 71 83 9f 3d 0b 8b d1 3c
       0.11740486 -0.04278052 0.07788742 0.025578996
000390 c8 70 9f 3d 54 d2 57 3d 65 64 99 3d d0 de f2 3b
       0.07785183 0.05269082 0.07489852 0.007411815
0003a0 7f c7 f1 bc a9 24 87 3d e2 00 b3 3c be 38 fd b9
       -0.029514072 0.06598789 0.021851007 -0.00048298197
0003b0 69 c7 ee 3d d0 0c 34 3d 53 30 2b bc 54 17 99 3c
       0.11659128 0.04395753 -0.010448533 0.018687882
0003c0 22 08 6f 3c fd 3c b0 3d b0 ed 9d 3d b1 13 bb 3d
       0.014589341 0.086053826 0.07711351 0.09134615
0003d0 e0 66 6a 3d 50 bb 96 3d dd c2 fb bc 79 03 cc ba
       0.057227015 0.07359946 -0.030732566 -0.0015565
0003e0 91 c3 06 3d e3 71 d5 3c e8 48 1e 3d 3c 8a 95 3d
       0.03290135 0.026055282 0.038643748 0.07301757
0003f0 22 ac 9d 3d d5 57 2e bd af 64 a8 3d 77 15 34 bd
       0.07698847 -0.042564232 0.08222329 -0.043965783

fc2.bias f4 [96]
000000 cb 4d a1 ba b7 6b e3 bc a3 46 d7 3d 20 2a 0f 3d
       -0.0012306509 -0.027761323 0.1051152 0.034952283
000010 e5 3d 74 bd 16 eb 8a 3d 55 9f 9a 3d e9 e2 47 3b
       -0.05962934 0.0678312 0.075499214 0.003050024
000020 16 b6 ce 3c 6d 29 e5 3c 3a e6 d1 bc 6e 76 0d 3b
       0.02523331 0.027973855 -0.025622476 0.0021585482
000030 01 8f a8 bb 1c e0 a3 bd 64 6a 96 3d b4 06 8d bd
       -0.0051440005 -0.0800173 0.07344511 -0.06886044
000040 4d fb 3d bd a7 ed 5b bd de 0e c6 3d 28 ff 1c 3d
       -0.046382237 -0.05369344 0.096708044 0.038329273
000050 05 02 0c bd 5a 98 a5 3d f1 0f a2 3d 98 9a 85 3d
       -0.034181613 0.080856994 0.07913197 0.06523627
000060 82 49 b6 3d f6 c0 30 3d 87 09 15 bd 75 d4 82 bc
       0.08900739 0.043152772 -0.03638604 -0.015970448
000070 af f9 5a 3d a4 e1 80 3c 25 d6 17 3d 72 7d ff bc
       0.053460773 0.015732594 0.03706946 -0.031187747
000080 0e 66 97 3c 7f 22 42 bd 15 fa 27 bc 1c 88 59 3d
       0.01848128 -0.04739618 -0.010252495 0.05310832
000090 f7 19 1b 3d f5 d6 89 3c dd e5 a6 3d 50 48 89 3d
       0.03786656 0.016826132 0.08149312 0.06703246
0000a0 84 2c 2c 3d ab 03 9b 3d eb cc d1 3d 9f 3c 29 bd
       0.04203464 0.07569059 0.10244163 -0.04131758
0000b0 8f f5 36 bd c7 69 18 3a e2 03 9f bd 54 a4 e4 3d
       -0.044667777 0.0005814102 -0.077644125 0.111641556
0000c0 e0 9d b5 3b fe d4 94 bd a9 2a 67 3d 9f c2 c6 3d
       0.005542502 -0.072671875 0.05643717 0.0970509
0000d0 f1 37 b3 3c 41 a5 ba 3c e7 89 70 bd 71 32 84 3d
       0.02187726 0.022783877 -0.058725264 0.064549334
0000e0 0c 15 9a 3d bb 9c 7b bd 9e cd 73 bd 92 3f 50 3d
       0.075235456 -0.061428767 -0.059522264 0.050841875
0000f0 97 cb 59 3d 06 71 16 bd 63 4b c3 3d 13 cf ec 3a
       0.053172674 -0.03672888 0.09535863 0.0018067084
000100 30 8d 20 3d e8 f7 49 bd 1d 47 9d 3d 0e 31 8e 3d
       0.039197147 -0.049308687 0.076795794 0.0694295
000110 c1 54 8d bb 40 b1 14 3b b4 85 bb bb 39 45 cf 3d
       -0.004313082 0.0022688657 -0.0057227258 0.10120625
000120 11 6e 4a bb 87 4d 73 bd 48 93 83 bd 8d ab 64 3d
       -0.0030888359 -0.059400108 -0.06424576 0.055827666
000130 1d 38 36 3d 79 1d 78 3d e7 6a 82 3d 85 7e 66 bc
       0.044487108 0.060574982 0.06368046 -0.014068251
000140 ea ec 67 3a ff 20 25 bc e9 4c af 3c b7 db eb bc
       0.00088472536 -0.010078668 0.021398978 -0.028791292
000150 ae e8 cd bc 99 f7 2f 3d 37 1c 8a 3c 1f 56 08 3e
       -0.025135364 0.042960737 0.016859157 0.13314103
000160 4c 2d 78 bb 42 6a 5a 3d 80 94 5f bd 49 03 98 3c
       -0.0037868796 0.05332399 -0.05458498 0.018556254
000170 e9 5d fc bc d4 89 a5 3d 62 71 4d 3d b4 e4 39 bc
       -0.030806499 0.08082929 0.05015696 -0.011346031

fc3.weight f4 [96, 96]
000000 91 e7 b0 3d 68 de e8 bb 3e 27 37 3d 52 60 bb 3d
       0.08637918 -0.007106591 0.04471516 0.09149231
000010 2c f6 6f 3d 8f c8 30 3d cb 47 ad 3c 5d 9c 8e 3d
       0.058584377 0.043160018 0.021152398 0.06963418
000020 7a 94 e6 3c 3f a3 45 3d 12 5a 88 3d f2 a4 cb 3d
       0.028146971 0.048251387 0.066578045 0.0994357
000030 cc 05 5b 3c b1 8f 9c bd f0 ea 79 3d 12 fe e2 bd
       0.013368081 -0.076445945 0.06101507 -0.11083616
000040 44 96 6a bb 71 20 ce bb c7 2e b5 bd a5 fd 57 3d
       -0.0035795132 -0.0062904884 -0.08846813 0.05273213
000050 4d 87 a2 3d e9 01 61 3d 0a 81 50 bd b4 43 94 bd
       0.07935963 0.054933462 -0.05090431 -0.07239476
000060 b2 f1 39 3d e4 1e cb 3d 49 08 e3 bd a2 06 ce bd
       0.045396514 0.09918001 -0.11085565 -0.10059859
000070 8c c6 1a bc d1 6b 1e bd 16 67 19 bd 3f a0 b4 3d
       -0.009446751 -0.03867704 -0.037451826 0.08819627
000080 23 79 9e 3d 2a d8 70 bd bd 6d 77 3d d5 49 86 3d
       0.07737949 -0.0587999 0.06040739 0.06557051
000090 3e 45 e0 3c d3 37 7a 3d bf e2 fa 3c 34 3a 50 3d
       0.027376767 0.061088394 0.0306257 0.050836757
0000a0 a3 5c ee bc 30 33 49 3d 49 a7 a9 3c 7a c9 77 bc
       -0.029096907 0.04912108 0.02070965 -0.015123719
0000b0 3b c2 22 bc 55 55 a2 3d 6e 33 52 3d ec 2c 6a bd
       -0.009934003 0.07926432 0.05131858 -0.057171747
0000c0 e5 39 99 3d a6 92 17 bd 69 e5 5a 3c a3 35 67 3d
       0.07481746 -0.03700509 0.01336036 0.056447636
0000d0 09 35 12 bd 63 be 2d bd 42 d1 73 3c e2 f3 ee 38
       -0.03569511 -0.042417895 0.014881434 0.00011394151
0000e0 97 a7 1b bd 00 6e 00 bc 16 55 1c bd 79 cc 19 3c
       -0.038001623 -0.007838726 -0.03816708 0.009387129
0000f0 ab fb a7 bb 87 7e 85 bd 7e 78 b8 3c bb e7 79 3b
       -0.0051264367 -0.06518274 0.022518393 0.0038132507
000100 8d 02 1a bd 01 06 0e 3c ef 61 b4 bd 1d e8 61 bd
       -0.03760009 0.008668424 -0.08807742 -0.055153
000110 fa 3f 91 3d 61 a5 c3 bd e3 8a 9e bc 38 d4 c3 bc
       0.07092281 -0.09553028 -0.019353336 -0.023904905
000120 9b 23 b5 bc 83 06 52 bc 56 9e 89 bd 30 31 4c 3d
       -0.022111705 -0.012818935 -0.06719653 0.049851596
000130 04 fd c4 3c 0f be 62 bd 5c ce 09 3e 6f b2 1d 3d
       0.024046429 -0.055357035 0.13457626 0.038500246
000140 db 1d a3 bd b9 ce 7b bd fa af 73 3c 39 46 3c bc
       -0.07964679 -0.061476443 0.014873499 -0.011491352
000150 97 8d 8c bd bf b3 94 bc 61 88 c3 bd 15 b5 9b 3b
       -0.068629436 -0.018152116 -0.095474966 0.0047518113
000160 1e 6f 43 bd ec 47 63 3d f9 60 3e bc 4d 51 c5 bd
       -0.04771339 0.055488512 -0.0116198 -0.096346475
000170 6a 3b 27 bd ae 75 5a bd a4 cf d5 3d 32 b0 9a bd
       -0.040828146 -0.053334884 0.10439995 -0.07553138
000180 f5 3d 3f be 47 bc e4 3d 07 95 9a bc 8b 9c 82 bb
       -0.18675978 0.111687236 -0.01886989 -0.0039859465
000190 bc 0e 23 3e 45 2f f9 3d b2 11 57 bd c9 94 8e 3d
       0.1592359 0.12167219 -0.05250711 0.06961972
0001a0 33 48 1b 3b c5 fe 02 be fd b7 94 3d 95 ac 8c 3d
       0.0023694157 -0.127925 0.072616555 0.06868855
0001b0 6f 6d 66 bc 41 cf 3d 3c cd 53 1b bc d9 99 d8 3d
       -0.014064177 0.011585058 -0.009480429 0.10576219
0001c0 8e 0c 1a 3d c6 75 92 bc d2 0d 7a ba 01 93 b9 bd
       0.03760963 -0.017878424 -0.00095388026 -0.09061242
0001d0 cd 7c ad bd 6c fb a6 bd 5a 35 74 3d f6 b0 84 3d
       -0.084710695 -0.08153424 0.059621193 0.06479065
0001e0 db 8d 6d 3c d0 2c 83 bb 09 ae 9a 3d 76 84 47 3c
       0.014499153 -0.004003145 0.07552726 0.012177577
0001f0 bc 72 80 3d 15 2b 06 3e e0 3d 8d 3c 2f 5b b5 bd
       0.06271884 0.13102372 0.017241418 -0.088552825
000200 26 86 88 3d 5b bc 2b 3e 3b 7c 92 bd 54 13 1c 3e
       0.06666212 0.1677107 -0.07152601 0.15241748
000210 bb 7f 0f 3e 71 1b b4 3c 81 e6 1c 3b 77 a8 97 3d
       0.14013569 0.021985741 0.0023941102 0.07405179
000220 47 40 3e bd 6f 9f 7a ba 36 21 91 bd 90 ba ce bd
       -0.04644802 -0.00095605006 -0.070864126 -0.10094178
000230 98 8f 49 3c 5a ea f1 3d 0c c0 4b 3b 20 02 55 bc
       0.012302302 0.11812277 0.003108981 -0.013000995
000240 5f a6 bc 3d b5 1f 04 3d 74 6d 86 3c 92 9d 2a 3d
       0.0921142 0.0322568 0.016409613 0.041654177
000250 96 ce 7c 3d 22 b2 80 bd 92 11 86 3d bc 6d 1f be
       0.061720453 -0.06283976 0.0654632 -0.15569204
000260 b2 d8 52 3d 8d d1 6a 3d 46 8c 19 3d 68 40 82 3d
       0.051476188 0.05732875 0.03748729 0.06359941
000270 5c 27 ba ba f7 d8 52 bd 10 66 97 bd 95 da f8 3b
       -0.0014202404 -0.051476445 -0.07392514 0.0075944164
000280 f4 45 91 3c 87 06 84 bd 68 48 b3 bd dc 71 dc bc
       0.017733552 -0.064465575 -0.08754045 -0.026909761
000290 9e e8 0c 3b f3 bd d8 3d ff 2e 6e bd d9 66 1c bd
       0.0021500955 0.10583105 -0.058150288 -0.03818402
0002a0 e9 d1 fb bd 6b 2a 06 bc b7 0d 2e 3d 8c 9a 80 3d
       -0.122958966 -0.008188824 0.04249355 0.062794775
0002b0 6c 3e 0f 3d d3 9f 84 3d 8b 50 59 3d d0 82 9d bd
       0.03497164 0.064757966 0.053055327 -0.07690966
0002c0 29 9f c5 3d 4c 7a a3 bd aa 91 84 bc 3c 5a 8b bd
       0.09649498 -0.07982311 -0.01618274 -0.0680432
0002d0 83 6b 97 bd 5e a4 b5 3d 74 e9 63 3d cc 41 a6 3d
       -0.07393553 0.08869241 0.05564256 0.081180185
0002e0 9e 9c 8b bd d7 32 3d 3d 80 30 cc 3d 0e 81 21 bd
       -0.06816982 0.046191063 0.09970188 -0.039429717
0002f0 9e 97 a4 bd 34 5e eb bc 6d e5 af 3d cb 69 ee 3c
       -0.08036731 -0.028731443 0.08588681 0.02910318
000300 76 c3 82 bd c2 a7 9b 3d 8d b4 e3 3d d3 ac 5f bd
       -0.063849375 0.07600357 0.11118422 -0.054608177
000310 f5 96 97 bd 0a a5 9b bc d7 5f 02 be 65 41 cf 3d
       -0.0740184 -0.018999595 -0.12731872 0.10119895
000320 0c c4 db bd e3 47 31 3d b6 21 dd bd 7f e5 ae bd
       -0.10730752 0.043281447 -0.107974455 -0.08539867
000330 98 b4 4d bd 0c 49 98 bc 57 5d da bc 20 dd 96 3d
       -0.050221056 -0.018589519 -0.026655836 0.07366395
000340 e6 3a 71 3d 7e 44 bb bd de 6a 50 3d f1 c2 1c 3d
       0.05889406 -0.09143923 0.050883166 0.038271848
000350 70 2a 0a 3e 61 fe 04 3e 52 1c 02 3d 76 09 5f 3d
       0.13492751 0.12987663 0.03176529 0.054452382
000360 f9 5a ab 3c dc 30 21 3d ec 6b 2d bc db f7 06 bd
       0.020917403 0.039353237 -0.010584813 -0.032951217
000370 f6 c1 2c 3d 1c 51 22 3d 14 3f fb bc ff 14 01 3e
       0.042177163 0.039628133 -0.030669726 0.12605666
000380 00 fb 66 bc 94 46 b0 bc b2 3d 64 3d a6 b2 68 bc
       -0.014097929 -0.02151803 0.0557229 -0.014202749
000390 c8 5a 03 3d 5b 17 b6 3d bb 30 eb 3d 20 86 9c bd
       0.032068998 0.088911735 0.11483904 -0.0764277
0003a0 9e ad aa 3d 8d 49 08 3e dc b6 94 3d 68 28 e8 3d
       0.08333896 0.13309307 0.0726144 0.11335832
0003b0 72 c2 86 3c ba 2a d1 3c 5e 00 b3 3d 92 bd 97 3d
       0.01645014 0.025533069 0.087403044 0.074092045
0003c0 1a 77 1d be 31 2c 6d 3b 61 79 fc 3d 83 b5 39 bd
       -0.15377465 0.003618967 0.12327839 -0.04533912
0003d0 73 c6 9b 3d 45 59 2a bb fb dd 9a bd e9 7c 1a bd
       0.076062106 -0.002599315 -0.07561871 -0.03771678
0003e0 cc b5 1a 3e 1e 59 ad bd 28 99 41 bd 9c 60 b0 3c
       0.15108413 -0.084642634 -0.0472652 0.021530442
0003f0 0b c9 06 be 3a 90 9b bd ff e3 26 bd ca b9 c4 bc
       -0.1316263 -0.075958684 -0.040744778 -0.024014372

fc3.bias f4 [96]
000000 0c 92 51 bd 75 e9 82 3d 2d fc a9 bd ec a5 3d 3d
       -0.05116467 0.06392185 -0.08300052 0.046300814
000010 cf 7b 0f be 5c 6e 92 bd 72 9e b1 3d 87 49 b5 3c
       -0.14012073 -0.07149956 0.08672799 0.022129787
000020 64 27 de bd 65 93 af bd 07 f7 4a 3c a8 ed 0f 3c
       -0.10847357 -0.08573035 0.0123879975 0.008784689
000030 49 37 ff 3c d8 3d 2b 3d b9 d5 87 3c 96 bb ec bc
       0.031154292 0.041807026 0.016581403 -0.028898042
000040 4c 6f 55 bd fa 65 6e 3d df b9 38 3b e3 a7 d1 3a
       -0.052108094 0.05820272 0.002818696 0.0015995469
000050 7f 33 93 bd e3 d8 65 bd 19 db bc 3c 3d 57 de bc
       -0.071875565 -0.056115042 0.023053693 -0.027141208
000060 b5 b1 a6 bd c7 f9 d7 3d 50 42 b6 3d 97 b5 9a 3d
       -0.08139364 0.10545688 0.08899367 0.07554167
000070 06 b3 64 3b fb 67 92 bd 5c 9c 0f bd 65 3e da bc
       0.0034896745 -0.07148739 -0.035061225 -0.02664108
000080 9b be b8 bd 99 29 bc 3d 8e 67 99 bd d1 8d 0f 3d
       -0.0902073 0.091876216 -0.074904546 0.035047356
000090 35 0b 1d bd a4 dd ae bd 6e 86 85 3d a1 f6 83 3d
       -0.038340766 -0.08538368 0.06519781 0.06443525
0000a0 d4 40 e6 3d 19 30 f9 bc b6 90 4b 3d f2 96 1a bc
       0.11242834 -0.030418443 0.049698554 -0.009435402
0000b0 18 db c1 3a f6 66 c2 bd 81 b6 ea 3c 75 3c 1e 3d
       0.0014790026 -0.094922945 0.028651478 0.038631875
0000c0 00 c1 a7 3d 2d 65 72 3d 09 d5 0b 3d 46 67 69 3d
       0.08191109 0.05917852 0.034138713 0.056983255
0000d0 78 9a 13 3d 55 dc 6a 3c 65 a4 a8 bd 7f b6 3b bd
       0.036035985 0.014334758 -0.08234481 -0.04582834
0000e0 d4 c2 ab 3b 5a c2 cb 3c 18 05 89 bc 49 b3 e1 bd
       0.005241731 0.024872947 -0.016726062 -0.11020524
0000f0 29 6a 73 3d 95 6c 56 bd 99 72 76 bd 04 0d 00 3d
       0.059427414 -0.052349646 -0.060167883 0.031262413
000100 ed cf 64 3d 2c 03 44 bd 6a 5b a5 bc dc d3 3b bd
       0.055862356 -0.047854587 -0.020185191 -0.04585634
000110 2b ab dc 3c 57 5c c6 bd 5c fe 81 bd 47 d1 5f 3d
       0.026937088 -0.09685581 -0.06347343 0.05464294
000120 92 56 ea 3c fa 79 e9 3c 11 63 d8 bc 09 80 33 bc
       0.028605733 0.028500546 -0.026414426 -0.010955819
000130 b2 88 47 bd 5a 5e 04 3e da 3d 95 bd 30 67 53 bd
       -0.048714347 0.12926617 -0.07287188 -0.05161208
000140 64 ee 82 bd 33 67 07 3d cd 73 20 3d 90 dc a9 3d
       -0.06393126 0.033057403 0.039172936 0.08294022
000150 5f 1d 02 3e 54 e4 f4 3d e6 30 ea 3c 73 bd 45 3d
       0.12706517 0.11957613 0.02858777 0.048276376
000160 da cd 42 bd fb 95 2e bc 40 8f 6b bd ae 95 be ba
       -0.047559597 -0.010655875 -0.05750966 -0.0014540458
000170 0d 6c e6 bd 7c f1 9c bd 53 87 e7 bc cd 7f a7 bd
       -0.11251078 -0.07663247 -0.02826277 -0.08178673

fc4.weight f4 [48, 96]
000000 bb 82 52 3c 1a e2 27 bb 07 07 5a bd 81 fc 90 bd
       0.012848551 -0.0025616945 -0.053229358 -0.07079411
000010 0b e6 5e 3c e0 b2 28 bd cc 4d 8b 3d 93 f6 cb 3c
       0.013604651 -0.041186213 0.06801948 0.02489785
000020 18 98 bb bd e7 34 15 bd c7 29 f2 3c a3 95 7e 3c
       -0.09159869 -0.036427405 0.029560937 0.015538606
000030 1c 65 85 3d 4b a9 10 3d d1 62 b8 3d 51 33 b3 3c
       0.06513426 0.0353177 0.09003223 0.021875056
000040 4d 75 84 3d cc c8 df 3d 61 e0 95 bc 15 3a 54 3d
       0.06467686 0.10926971 -0.018295469 0.051813204
000050 a5 6f 9d 3d 67 79 9f 3d 0e 01 ed bc 76 79 1b 3e
       0.0768731 0.077868275 -0.028931167 0.15183052
000060 f9 9f 0b bd bb b9 85 bd c2 05 90 bd e3 36 c6 bd
       -0.03408811 -0.06529566 -0.07032348 -0.096784376
000070 47 bc a8 3d 8a 6b f4 bd 03 32 05 3e de 8c d1 3d
       0.08239036 -0.11934574 0.13007359 0.102319464
000080 da b0 d6 3c 39 04 a7 3b 06 8c 83 3d d0 47 be bb
       0.026207376 0.005096939 0.06423192 -0.0058069006
000090 37 b5 75 bd ae 97 95 3d 98 5f 6d bd bb ad 4e bd
       -0.059987273 0.07304321 -0.057952493 -0.05045865
0000a0 f3 08 9b bd c4 fb 51 bd f2 76 de 3c 9c 2a 49 bc
       -0.07570066 -0.051265493 0.027156327 -0.012278225
0000b0 14 04 10 be a4 9a 69 3d d1 5b 03 3e 44 65 77 3d
       -0.14064056 0.057032242 0.12827994 0.06039931
0000c0 13 b8 94 3d 30 2b 42 3d c9 d0 0d be 73 a5 0b 3d
       0.07261672 0.047404468 -0.13849176 0.03409333
0000d0 ad 6e 28 3e 06 d3 47 bd 73 d7 c6 3c a2 ab 72 3d
       0.1644847 -0.048785232 0.024272656 0.059245713
0000e0 ad 22 1a 3d 5c 83 77 bb b3 5f e5 3c 7b dc 86 3d
       0.037630726 -0.0037767505 0.027999735 0.06585022
0000f0 15 1a 1d bd 56 84 f3 3d 17 a3 ef 3c 1f 2a 9a bd
       -0.038354952 0.118904755 0.029252572 -0.07527565
000100 13 a2 29 3d 43 a0 cd 3d fd a2 5a bc 17 96 89 bd
       0.04141433 0.10040333 -0.0133445235 -0.067180805
000110 87 d8 fe 3c 0b 2d c2 3d 36 fa 8d bd c6 cd 98 bc
       0.031109108 0.094812475 -0.069324896 -0.018652808
000120 ae e6 58 bd 6f 8e 8b 3d 33 fe d5 bd 1d fe 4b bd
       -0.05295437 0.068142764 -0.10448875 -0.04980289
000130 64 91 14 3d 86 74 f1 bd c5 13 0b be 02 f3 10 bb
       0.036271468 -0.11789803 -0.1358176 -0.00221175
000140 bf 63 4d bd c9 21 25 3e 8a 41 10 be dd df 7f 3d
       -0.050143953 0.1612617 -0.14087501 0.062469352
000150 c5 95 78 3d 1c b8 cd bc 54 19 2e 3e c5 c4 1f 3c
       0.060689706 -0.025112204 0.1700185 0.009751503
000160 db 6e 60 3d 2f 6e 24 3d 1e 17 22 3e 88 43 bb bd
       0.05479322 0.04014414 0.15829131 -0.0914374
000170 79 0a 14 3e a6 26 96 bb 53 99 5e 3d 78 82 95 3d
       0.1445712 -0.004582244 0.05434544 0.073002756
000180 e3 b4 47 3c 1b cb 05 3d 20 3c 7f 3d a1 15 c4 bc
       0.012189123 0.0326644 0.0623132 -0.023936095
000190 78 25 6b bd 88 2c 10 bc f7 09 79 bc 78 c9 97 3d
       -0.05740878 -0.00879968 -0.01520013 0.07411474
0001a0 4f 8a 82 bd b7 90 96 bd 73 08 b2 bd 1b ea 84 3d
       -0.063740365 -0.07351821 -0.08693018 0.064899646
0001b0 5c 27 2c bd 5b f8 81 3d 90 21 b3 3b c4 d7 54 3d
       -0.042029724 0.06346198 0.0054666474 0.051963583
0001c0 4b a4 9e bd c4 f0 ee bb e4 06 d8 bd 38 05 67 bd
       -0.0774618 -0.007291885 -0.10548189 -0.05640146
0001d0 3d b4 c2 bd 8c f5 b3 3d ce 03 1b bd f5 dd c4 bd
       -0.09507034 0.08787069 -0.037845425 -0.096126474
0001e0 da d5 ac 3d 3c 8d d5 bd b2 b3 83 bd c3 45 13 bd
       0.084392264 -0.10427329 -0.064307585 -0.0359552
0001f0 b3 ef 83 3d 00 7f a4 3d 2f 97 cf bd 9f 7e 8a 3d
       0.064422034 0.08032036 -0.10136258 0.06762432
000200 37 43 27 bc e5 60 4e bc ba 71 3a bd f3 4b 66 bd
       -0.010208896 -0.012596344 -0.045518614 -0.056224775
000210 90 f4 be 3c fd 08 3d 3d e4 3b ac 3d 75 1e e0 bb
       0.023309976 0.04615115 0.08409861 -0.0068395683
000220 3e c7 99 3d 01 7b 59 bd ea 64 9e bd 5d e4 9c 3a
       0.075087056 -0.05309582 -0.077340916 0.0011969913
000230 52 7f 56 bd 81 0c a3 3d 70 b5 be bd 41 f9 da 3c
       -0.052367516 0.07961369 -0.0931195 0.026730182
000240 8b c2 c3 3c 67 8e a7 bd 15 98 ce bd 08 c1 15 bd
       0.023896476 -0.08181458 -0.10087601 -0.036561042
000250 a6 66 d2 3c fb 6e 9e bd 33 f2 c2 3c 08 90 a2 bc
       0.025683712 -0.077360116 0.02379713 -0.01984407
000260 2c aa ec bc d1 b1 a7 3d bf 0e 55 bd bb b0 9d 3d
       -0.028889738 0.08188213 -0.052016016 0.07699724
000270 67 12 42 bd c9 1e 17 bd 4f a7 a9 3d 3c 77 a2 bd
       -0.04738083 -0.036894593 0.08283865 -0.079328984
000280 c8 f0 c6 bd fe be 74 bd 56 35 91 3d 4b 12 ac bd
       -0.09713894 -0.059752457 0.07090251 -0.084019266
000290 a4 1e 3f 3a fa 16 83 bd 44 1f 8e 3d 94 0f b3 bd
       0.00072906376 -0.06400867 0.06939557 -0.08743206
0002a0 4d 18 8a 3d 4f 0a 02 bd 06 ef b9 bc 8e 90 b5 bd
       0.06742916 -0.031748112 -0.022696983 -0.08865462
0002b0 1c 34 6d bc d3 e4 80 3d ed aa cf bd c0 4e 03 3d
       -0.014477756 0.06293645 -0.101400234 0.032057524
0002c0 d3 15 ac 3d 65 85 7a 3d 0f 62 d0 bd a4 30 b8 3c
       0.084026 0.06116237 -0.10174953 0.022484131
0002d0 15 63 a7 3a fd b7 26 bc 99 24 50 3d ec bb 55 bd
       0.0012770618 -0.010175702 0.050816152 -0.05218117
0002e0 65 88 a0 bd c3 e3 89 3d 53 2a a0 3d 5a c8 2f 3d
       -0.07838515 0.06732895 0.07820573 0.04291568
0002f0 a8 85 a7 3d de 95 1b bd 44 92 33 3d 9c 44 cd bd
       0.0817979 -0.03798472 0.04384066 -0.10022852
000300 79 a8 cf bb 3e ab 6a 3b f3 2d e6 bc 20 fe c0 3d
       -0.006337222 0.0035807635 -0.028098082 0.094234705
000310 0d 9f 9d bd c1 45 2c 3d ca 3b c0 3c 87 37 68 3d
       -0.07696352 0.04205871 0.02346601 0.05669358
000320 12 17 92 3d d9 07 2e bd 3e 78 6e 3d 7b ae 6a bc
       0.071333066 -0.042487953 0.05822014 -0.014323826
000330 e4 f8 d8 bc e2 53 b6 3d f2 82 31 bd 4b 29 5f bd
       -0.026485868 0.08902718 -0.04333777 -0.05448274
000340 eb 4d bc 3d 52 c1 97 3c 85 f6 93 3d cf f4 9a bd
       0.09194549 0.0185248 0.07224754 -0.07566225
000350 2e 4e e6 3d b3 fe b8 bc ab a9 01 be 00 a7 3d bd
       0.1124538 -0.022582388 -0.1266238 -0.04630184
000360 fa c3 18 3d 0a 0c ac bd 2a d3 32 bd 37 4d ab bd
       0.037296273 -0.08400734 -0.043658413 -0.08364337
000370 e7 86 9b 3d 14 4d a9 3d f3 59 81 bc 31 90 dc 3b
       0.0759409 0.082666546 -0.015789961 0.006731056
000380 0a bf 00 be 90 cb 6c bc 7b a6 35 bd fb 28 dc bc
       -0.12572876 -0.01445283 -0.04434822 -0.02687501
000390 30 a5 85 3d 30 84 4f bd a7 6c 38 3c 2a 31 53 3d
       0.06525648 -0.050663173 0.0112563735 0.05156056
0003a0 7c cc bd 3b 66 25 ad 3d 63 bd d0 3b 2f 78 e4 3d
       0.0057921987 0.08454399 0.006370233 0.11155736
0003b0 20 4e 0c 3e 7a d2 97 3d cd dc 0b be 57 f9 cf bb
       0.13701677 0.07413192 -0.13658448 -0.0063468623
0003c0 04 d9 76 3d 19 b8 36 3d 06 0d 26 bd 78 17 2b 3d
       0.060265556 0.044609163 -0.040539764 0.04177043
0003d0 2e b5 a1 bd f9 90 b0 3d 15 87 a7 3d 5f 5f a7 3d
       -0.078958854 0.08621401 0.08180062 0.081724875
0003e0 6b 08 6f 3d 45 31 9c bd 55 57 b3 bc af 81 5c bc
       0.058357637 -0.07626585 -0.02189223 -0.013458653
0003f0 29 ae dc 3d f6 38 46 bd 52 66 07 bd 92 be d3 3d
       0.10775406 -0.048394166 -0.033056565 0.10339083

fc4.bias f4 [48]
000000 bb 7a a1 3d a9 54 59 bd 29 26 7a 3d e6 c2 55 3d
       0.07884737 -0.053059254 0.06107155 0.052187823
000010 e3 65 4e 3d 3c bf ad 3d 3c 7f c8 bb 24 54 de bc
       0.050390135 0.08483741 -0.006118683 -0.02713973
000020 1c 32 c1 bb ab df 85 bc c5 fa bb bd 91 e3 9c 3d
       -0.005895866 -0.016342005 -0.0917869 0.07660592
000030 6b cb af bd ca ca 9c bc 5c 15 c2 bd 9b aa 45 bd
       -0.08583721 -0.019139666 -0.0947673 -0.048258405
000040 50 fc 9f 3d e1 08 d8 3d 9b d3 d4 bd 00 f1 83 bd
       0.07811797 0.105485685 -0.10391923 -0.064424515
000050 95 0b f3 bc 0f 8b bd 3c 3b 41 88 bd f1 c5 1e bd
       -0.029668609 0.023137597 -0.06653067 -0.03876299
000060 12 58 d3 bc 4b 6c c0 3d 71 95 56 3d c3 4c 81 bd
       -0.025798831 0.09395655 0.052388612 -0.06313469
000070 80 fc 08 bd 9b e1 6a 3c 75 8a a9 3c 01 21 c9 3d
       -0.033443928 0.014336015 0.020695904 0.09820748
000080 d4 82 15 3d 5f b3 e8 3c 40 7f 1e bc a8 60 61 bd
       0.03650172 0.028405843 -0.009673893 -0.05502382
000090 5f 1e b1 bd 63 b3 49 3d 24 bd 9e bc 6c 10 34 3d
       -0.08648371 0.049243342 -0.019377299 0.043960974
0000a0 4a 19 25 3d 41 fb 3b 3d 76 31 31 bc 22 71 a3 bd
       0.04030732 0.04589391 -0.010815015 -0.07980563
0000b0 dd 86 91 3c c5 cb 9e 3d c3 ea 3a 3d 1d bc 90 3d
       0.017764503 0.0775371 0.045634042 0.0706713

fc5.weight f4 [16, 48]
000000 d1 fc 3c 3e 66 b6 f3 3d cb 8c f1 bd 58 5d f0 bc
       0.18455817 0.11900024 -0.11794432 -0.029341385
000010 5d c7 91 bd 72 b6 ce bd f6 81 95 3d 9c 7b cd bd
       -0.07118104 -0.100933924 0.07300179 -0.10033342
000020 ce bf 24 3c cc 06 c9 bd b7 2b 81 bd 77 ba 12 3d
       0.010055495 -0.098157495 -0.06307166 0.035822358
000030 da 57 f0 bd d0 21 fd bd 1d cf 15 3d ad bc c0 bd
       -0.11735506 -0.12359965 0.03657447 -0.09410987
000040 7b 02 c3 bd 77 f9 9f 3d 40 30 f6 bd a1 81 c1 3d
       -0.095219575 0.078112535 -0.12020922 0.09448553
000050 ff a2 82 bd 13 f7 0e 3e 35 72 01 bd c1 5a bc 3c
       -0.06378745 0.13961439 -0.031603057 0.022992494
000060 83 7f fc 3d 13 b9 12 3e 4d 0c 61 3e 64 2f 1d be
       0.123290084 0.14328413 0.21977349 -0.1535011
000070 f4 39 b2 bd 5b 5b e9 bd 73 f8 a6 3d 82 09 0a be
       -0.0870246 -0.11394378 0.08152857 -0.1348019
000080 75 db 98 bd 67 fe dd bd 5a 6c ad 3d 85 e1 97 3d
       -0.07463733 -0.10839539 0.08467932 0.07416061
000090 d5 15 d7 bd e4 ab 02 be d9 ef 1b bd 70 bc 86 bd
       -0.10502211 -0.12760884 -0.038070533 -0.0657891
0000a0 02 e6 c8 3d 59 99 e8 3d 62 ce d2 bc ab 15 01 be
       0.098094955 0.11357374 -0.025733177 -0.12605922
0000b0 9b aa da bd bc 1b 06 3b f0 0b 4d bd 41 5c f1 bd
       -0.10677072 0.0020463308 -0.050060213 -0.11785174
0000c0 52 d5 26 3e 8b 48 96 bd c1 be c0 bd 4a e6 b8 bc
       0.16292313 -0.07338055 -0.094113834 -0.022570748
0000d0 5e 84 03 be 71 87 06 be 9c 34 d4 3d 78 df 1a be
       -0.12843463 -0.13137604 0.10361597 -0.15124309
0000e0 2e 10 c2 3b c5 ba 06 3e 4c e5 ae bd 7c 34 18 3e
       0.005922339 0.13157184 -0.08539829 0.14863771
0000f0 59 65 9d bd ed 01 c5 3d 5c 1b fe bd 46 18 b2 3d
       -0.07685346 0.09619508 -0.12407562 0.08696036
000100 44 72 d0 3c 8f 23 94 bd e3 de 63 bd f7 ae 0f be
       0.025445111 -0.07233345 -0.055632483 -0.14031588
000110 fe da 8c bd 03 e2 35 3d ae 1a 10 bd 0f e3 1b be
       -0.06877707 0.044404995 -0.035181694 -0.15223335
000120 99 a6 0b 3e 54 65 78 3d 91 74 e6 bd f7 47 93 bc
       0.1363777 0.06064351 -0.11252702 -0.017978651
000130 99 9c aa bc 39 90 5f bd 35 44 63 bd 2d 59 ee bd
       -0.020826625 -0.0545809 -0.05548497 -0.11638103
000140 f6 5a dc bd 89 76 1f bd 64 96 f6 bc e9 19 8f 3d
       -0.10759537 -0.038931403 -0.030101009 0.06987364
000150 0a b2 75 bc 1d 9e 19 3e e6 4b 89 bd 8b e7 27 be
       -0.014996061 0.15001722 -0.067039296 -0.1639692
000160 94 64 50 bd ce ee a7 bd df 82 29 3d 54 74 f2 bd
       -0.05087717 -0.08199845 0.041384574 -0.11838594
000170 bb d6 93 3c 10 65 82 bb 7b 50 a7 3d 22 e8 c5 bd
       0.018046727 -0.0039793327 0.08169647 -0.096634164
000180 b7 61 5b 3d 90 e0 e2 bd 09 1f 9b 3d c8 07 22 bd
       0.053559985 -0.11077988 0.07574279 -0.039558202
000190 00 71 af bc 30 cd 0b 3d 17 ad c6 bd 62 a7 9c 3d
       -0.021416187 0.03413123 -0.09700983 0.07649113
0001a0 26 fa 68 bd 8e 37 ba bd 61 ae a9 bd d9 9a 12 3e
       -0.056879185 -0.090926275 -0.08285213 0.14316882
0001b0 78 f6 85 3d ec c4 19 bc 8d 77 06 be e0 19 00 be
       0.06541151 -0.009385329 -0.13131543 -0.1250987
0001c0 15 4c 08 be fb fa fb bd 2a ed cd bd 80 b1 d7 bd
       -0.13310273 -0.1230373 -0.10055001 -0.10531902
0001d0 53 6d b2 3a cb 0b a7 3d ad 1c 89 bc 02 ac b6 bd
       0.0013612903 0.08156546 -0.016737306 -0.08919527
0001e0 cf 46 8f bd c3 ea c9 3c 18 eb 56 3c a2 74 14 be
       -0.069959275 0.024648076 0.013117574 -0.14497617
0001f0 9b 53 c1 bd 46 89 f8 3b 84 dc a2 bd 38 1b 66 3d
       -0.094397746 0.0075847236 -0.07952216 0.0561783
000200 30 e7 c8 3d 6a 28 d2 3d 9d 90 1a be c5 d2 46 bc
       0.098097205 0.102616146 -0.15094228 -0.012135212
000210 ef 14 a0 bd 07 2d 05 3d af e9 89 bd 1f 23 91 bd
       -0.07816493 0.032513645 -0.06734025 -0.07086777
000220 df b2 25 3e ef 37 74 3d 8b 3b ac bc af 71 47 3d
       0.16181515 0.059623655 -0.021024486 0.0486924
000230 6c 5f e5 3d 61 75 ce 3d cb 3e 9a 3d 84 c1 04 be
       0.11199841 0.10080982 0.07531508 -0.12964445
000240 f7 3b ee bb 32 e9 80 3d 00 cd 0e be 64 16 88 bd
       -0.007270332 0.062944785 -0.13945389 -0.06644896
000250 76 a6 e2 bd c8 fa 0d be 16 5e 66 bd 0b e3 66 bd
       -0.11066906 -0.13865197 -0.05624207 -0.05636887
000260 0d ee 18 3c fd 21 24 bd 6d e5 b4 bd 3b 5e b7 bd
       0.0093340995 -0.040071476 -0.08832822 -0.0895352
000270 72 44 81 3d 70 82 5a 3d 86 0f be 3d a3 9c 94 bb
       0.06311883 0.05334705 0.092803046 -0.004535274
000280 00 30 d3 bd 19 55 ad bd b2 f7 81 bd 8b 66 c0 3d
       -0.1031189 -0.08463497 -0.06346072 0.093945585
000290 16 36 6b bd 9b 14 3d 3d 43 79 05 be 3d cf 9a bb
       -0.057424627 0.04616223 -0.13034539 -0.0047244118
0002a0 a8 0a 7e 3d 5a 9c 31 3e c3 7a 8f 3d e2 ae 83 3d
       0.06202188 0.173448 0.07005837 0.064298406
0002b0 2c 38 ae bd e1 9a da bd be 3f aa bd 66 c0 d6 bd
       -0.08506808 -0.10674072 -0.08312939 -0.10485916
0002c0 ca db 1d 3e 0a 14 65 bd f8 a0 d1 bb dc 65 58 bd
       0.15415874 -0.055927314 -0.006397363 -0.052831516
0002d0 b2 43 04 3e 3d df cc 3b 2b d7 a5 3d 53 57 10 3d
       0.12916449 0.006252198 0.08097681 0.03523953
0002e0 9a 27 24 3e 8c 42 a8 3d 89 74 a7 3d 48 79 ac bd
       0.16030732 0.08215818 0.08176524 -0.0842157
0002f0 de 35 cd 3d 77 19 d6 bd ab 52 ab 3d 1c 47 78 3d
       0.1002004 -0.10454076 0.08365377 0.06061469
000300 82 9c 75 3d 20 7e 59 3c 95 35 52 bd e2 aa a6 3d
       0.05996371 0.013274699 -0.05132063 0.08138062
000310 ea 63 5b 3d 15 28 62 3d ab 2b ab bd 5e 09 d3 bd
       0.053562082 0.055214006 -0.083579384 -0.10304521
000320 06 90 d8 bd d1 c0 e0 3d 11 8a b6 3c 91 95 01 3e
       -0.10574345 0.10974277 0.022282632 0.12654711
000330 ce 07 bf bd 20 77 91 bd 08 86 fe 3d 29 55 be 3d
       -0.093276605 -0.071027994 0.12427908 0.09293587
000340 8c 5c 26 bd c1 96 68 bd 69 5e 91 bc 18 8c 13 3c
       -0.040615603 -0.056784395 -0.017745214 0.009005569
000350 4d c0 99 bd c2 f8 ed 3d da ea cc bb 3d 4d a7 3d
       -0.075073816 0.116197124 -0.0062535824 0.08169029
000360 15 9d 04 3d 95 24 85 3d a1 3b bc bd 4b fb 02 bd
       0.032376368 0.06501118 -0.09191061 -0.031977933
000370 d7 50 08 bd ca a7 97 3b 61 0c 13 be 5b 55 d6 3c
       -0.03328022 0.0046281563 -0.14360191 0.026163748
000380 fb 4d 70 bd 7d 46 29 be a0 1c 9e 3c 72 29 f5 bc
       -0.058668118 -0.16530795 0.019300759 -0.02992699
000390 cd 6f e7 3d e5 e4 02 3d 5a f3 07 be c0 4a 88 3c
       0.11300621 0.031956572 -0.13276425 0.016637206
0003a0 20 96 e7 3d 35 7a e5 bd 60 0d 99 bc 5e 87 b6 bc
       0.11307931 -0.1120495 -0.018683136 -0.022281345
0003b0 d7 13 29 ba 9d aa f0 bc 36 60 1b bd c7 8a 10 bd
       -0.0006449795 -0.02937823 -0.03793355 -0.0352886
0003c0 14 78 b8 bd 3f cf 85 bd a7 16 16 be c4 43 04 be
       -0.09007278 -0.0653367 -0.14657079 -0.12916476
0003d0 19 69 84 3d bd 08 31 be 88 b0 9e bd 8a c1 9b 3d
       0.06465358 -0.1728849 -0.077485144 0.07605274
0003e0 31 a6 49 3d 30 69 ba bd 83 2f 0b 3d 7f 0f 1e 3e
       0.049230758 -0.09102094 0.033980858 0.15435599
0003f0 06 58 29 bc 38 92 db bc 4e cf 0b bc 7f 3a fa 3b
       -0.010335928 -0.026803121 -0.008533312 0.007636368

fc5.bias f4 [16]
000000 b0 c5 32 3e 57 3b 95 3d 0d 82 8c 3d 32 47 c1 3d
       0.17458224 0.07286709 0.06860743 0.094374076
000010 0c a2 4a bc 6c 9d c4 bd dd a1 a2 bd 2e 8a 74 3d
       -0.012367737 -0.09600338 -0.07941029 0.05970209
000020 d6 c0 06 3d 40 e1 e7 bd 7c 6d 06 3e 6f 62 dd bd
       0.032898746 -0.1132226 0.13127702 -0.1080979
000030 e8 e4 6c bd af d1 31 3d 2b ae b1 3d 41 d4 01 bf
       -0.05783549 0.04341286 0.08675798 -0.507145
