src/content/MoodSongs/modelScaleLessLayers-multi-qa-mpnet-base-dot-v1.pt (torch, 395943 bytes, 10 tensors)

conv1.weight f4 [24, 1, 7, 7]
000000 72 01 0b 3d 71 ee 2f bd 29 e4 59 be 9b 40 1c be
       0.033936925 -0.042952005 -0.21278442 -0.1525902
000010 8c 30 3d be 23 59 b4 bd cc dc 07 be de ef a4 3d
       -0.1847555 -0.08806064 -0.13267821 0.080535635
000020 2e 7c ef 3d 23 14 91 3d a7 b3 2b 3e c7 94 c5 bc
       0.11693607 0.07083919 0.1676775 -0.024118794
000030 b9 2c b9 bd 15 51 c1 bd 73 06 18 bd 54 23 76 3d
       -0.09041733 -0.09439293 -0.037115525 0.060092285
000040 3d 7c 64 bd be cf dc 3c 9c 98 c3 3d fd d4 b8 3c
       -0.055782545 0.026954528 0.09550592 0.022562498
000050 87 e3 67 bd b5 a9 a4 3d 4e 0b 4d 3c 94 5a a7 bd
       -0.05661347 0.080401815 0.012514902 -0.08171573
000060 ef 2d 33 bd 32 6d b3 3d f8 ce 2a 3c 3b 7c 67 3d
       -0.043744978 0.08761062 0.010425322 0.05651496
000070 1c 35 1f 3c 25 f6 78 3d d0 92 7e be 31 e7 10 be
       0.009717252 0.060781617 -0.24860692 -0.14150693
000080 86 7d 67 3c b1 50 3e be 03 3f 9e bd 6f 63 02 be
       0.014129048 -0.18585469 -0.07726862 -0.12733243
000090 e8 16 e6 bc 2f 1b b6 3d 17 af 37 be 63 50 26 be
       -0.028087094 0.088919036 -0.17937885 -0.16241603
0000a0 ac bb b5 bd 5b 59 a2 bb 2b 97 2e 3c 39 4b 09 be
       -0.08873686 -0.0049544997 0.010656158 -0.13407601
0000b0 4b ed c6 3d f4 f6 16 3e 6b 81 09 3c 01 7f 10 bc
       0.09713229 0.14742643 0.008392672 -0.008819343
0000c0 71 58 69 bb 5e 68 15 3e a8 fd ac 3c ac 62 b2 bd
       -0.0035605694 0.14590594 0.021117046 -0.087102264
0000d0 f7 9e 1a be 9a 3c c6 bd 8e 06 da 3d 3f 0d e5 3c
       -0.15099703 -0.096795276 0.106457815 0.027960418
0000e0 a7 c6 1a 3e cc c6 e0 3d 31 17 ab 3c 2f e4 27 be
       0.15114842 0.109754175 0.020885082 -0.16395639
0000f0 9a 5a 23 3d 9c 73 1a be 8a ea d3 3d a4 f0 2a be
       0.039881326 -0.15083164 0.10347469 -0.1669336
000100 df 7b 82 bd e6 7d 27 39 aa 46 95 3d 76 06 aa bd
       -0.06371283 0.00015973262 0.07288869 -0.083020136
000110 f9 56 98 3d 0a cc 9c 3d 67 44 51 bd 2a 39 05 3e
       0.07438464 0.07656105 -0.051090624 0.13010088
000120 8e 4d 8e 3d cd 28 ce 3c d9 29 ad 3d 19 10 0c be
       0.06948386 0.02516594 0.084552474 -0.13678016
000130 f7 dd 39 be f3 c0 6c 3d 06 f8 5e bd b9 01 86 bc
       -0.18151079 0.0578012 -0.054435752 -0.016358243
000140 c7 dc 2f be 0d 35 6d bd 7b 79 38 bd 44 56 49 3a
       -0.17174064 -0.05791192 -0.045037728 0.0007680396
000150 5a a1 01 3e 5a 1f 6f bb 5d 48 bf 3d 4c a2 32 3e
       0.12659207 -0.0036487193 0.09339974 0.17444724
000160 bf 76 17 3e 60 86 f0 3d 17 99 69 3c 1b 13 18 3e
       0.14791392 0.1174438 0.014257691 0.14851038
000170 91 be ca 3d ed 73 73 be a5 ab c2 bd 84 30 f8 3d
       0.09899629 -0.23774691 -0.09505395 0.121186286
000180 26 00 0e be d5 dc 1b be 2d 6c 00 be 7a 6c 71 3d
       -0.13867244 -0.1522096 -0.12541266 0.058941342
000190 14 4b 23 bd e4 58 32 3d 5d 72 12 be 75 69 0e be
       -0.039866522 0.043541804 -0.14301439 -0.13907416
0001a0 59 0a 85 3d d5 e3 17 3e 9d 2b 1d be d3 4a 30 be
       0.06496114 0.14833005 -0.15348668 -0.17216043
0001b0 f9 44 3e be da a7 66 3e 2c 73 c5 bd d9 e0 a6 3d
       -0.18580998 0.22524968 -0.09641108 0.08148355
0001c0 62 41 d2 3b 1e 70 fb 3d 98 15 f5 3d 58 9e ec 3d
       0.0064164856 0.12277244 0.11967009 0.11553639
0001d0 0e 0f 7e 3d 5b 6c b7 bd 3b c0 c8 bd d5 ca 2d bc
       0.062026076 -0.08956214 -0.0980229 -0.010607441
0001e0 ce 08 c8 bd 62 49 4b be a8 5d df bc 1c c5 a4 bd
       -0.09767304 -0.19852212 -0.027266338 -0.08045408
0001f0 24 67 b4 3d 99 1a ee 3d 9d 23 71 3d b8 ca 1d 3d
       0.08808735 0.11626167 0.058871854 0.038523406
000200 f8 fa cb 3d e1 f5 f8 bd 57 b5 e0 3c f1 03 94 3d
       0.09959978 -0.12156273 0.02743022 0.07227314
000210 f0 9b ff bc cf a9 d9 3d 55 5f b5 3d c8 79 0d bd
       -0.031202286 0.106280915 0.08856074 -0.034539968
000220 ab c8 d9 3d 77 de ff 3d 61 b1 d2 3c 80 ff 3b be
       0.106339775 0.12493604 0.025719346 -0.18359184
000230 3f 11 a9 3d d4 15 0f 3e 7f 74 c9 bd 2c 0e 8a 3d
       0.082552426 0.1397317 -0.09836673 0.06740984
000240 5a ad 05 be 6a 74 ab bd 21 52 c6 3d 40 80 fd bd
       -0.1305441 -0.083718136 0.096836336 -0.12377977
000250 35 01 99 bd 1f 0b 9c 3d 99 37 12 3e d1 80 ba bd
       -0.07470933 0.07619309 0.14279021 -0.09106601
000260 06 7f 85 3b a0 56 ec 3d 95 46 83 3d 08 f4 00 be
       0.0040739803 0.1153996 0.06409947 -0.1259309
000270 29 3f 74 3d 47 97 ce bd e0 c3 16 bd 88 97 31 be
       0.059630547 -0.100874476 -0.036807895 -0.17342961
000280 0e 89 85 be 56 6f 41 3d 48 f8 b8 bd e9 5f 0e bb
       -0.26081127 0.04722532 -0.09031731 -0.0021724647
000290 76 cc 2d 3e e2 40 74 bd 4e 9e 26 be e6 69 d7 bd
       0.16972527 -0.05963219 -0.16271326 -0.105182454
0002a0 bf d8 ee 3d 01 4b 42 3e 38 14 90 bd 63 c1 50 bd
       0.11662435 0.18973924 -0.070351064 -0.050965678
0002b0 54 53 02 3c 3d 02 05 be 84 66 49 be e5 75 1f 3e
       0.007954437 -0.12989135 -0.19668013 0.15572317
0002c0 12 86 8c be c3 40 57 be 06 e4 c7 3d c0 0e 8a be
       -0.27446038 -0.21020798 0.09760289 -0.26964378
0002d0 2c be a2 3c 99 ad c1 3b 7e 9b 40 3e 4a ef 11 3e
       0.019866072 0.005910587 0.18809316 0.14251438
0002e0 14 39 47 be a6 5e 00 bc 71 c6 0e 3e 0e 8d e4 3d
       -0.19455367 -0.007835066 0.13942887 0.111597165
0002f0 ac b8 3f 3e 56 3a 2e be ab c3 bd 3d e2 17 63 bd
       0.1872279 -0.17014441 0.09265836 -0.0554427
000300 99 1a 17 bd 0c ac b2 3c 66 9c 2a be b2 23 bd 3c
       -0.0368906 0.021810554 -0.16661224 0.02308831
000310 f3 00 0a be 2d 88 15 bd c7 24 2a 3d 55 eb 3e be
       -0.13476925 -0.03650682 0.04153898 -0.1864446
000320 40 5d b1 bd c8 a3 6b 3d 9a d1 39 be a3 69 a2 bd
       -0.08660364 0.05752924 -0.18146363 -0.07930305
000330 1f 25 6a be 51 e8 8b bd 4d a9 59 be a8 cf b8 bd
       -0.22865723 -0.0683142 -0.2125599 -0.09023982
000340 4a 49 d7 3d a0 8d 8c 3d 1d a8 2b 3e 60 fc 8e bd
       0.10512026 0.0686295 0.16763349 -0.069817305
000350 25 3e 22 3d 55 2a a6 bd 28 fb 4e be a2 34 41 bd
       0.039610047 -0.08113543 -0.20212996 -0.047169335
000360 d8 e3 36 be e7 f4 ca bc 66 b0 89 bd 5f ac 35 3b
       -0.17860353 -0.024774982 -0.067230985 0.002772115
000370 73 48 43 3e fb a7 29 bd 1a c6 13 be 16 77 b3 3c
       0.19070606 -0.041419964 -0.14431038 0.02190737
000380 03 4b 10 be 7a bb 13 3e 3a 29 fa bd f0 4e c8 3d
       -0.14091115 0.14426985 -0.122148946 0.09780681
000390 dc 16 30 be 7e 99 b9 3d 45 d7 12 3e 64 31 15 3d
       -0.1719622 0.090624794 0.14339931 0.036424056
0003a0 f7 4c c4 3d 21 e3 90 bc c5 e0 ff bc ca 46 49 bd
       0.095849924 -0.017686429 -0.031235108 -0.049139775
0003b0 8f 31 5e be 16 cd 52 3d ff 7c 47 be 6a b4 62 bd
       -0.21698593 0.051465116 -0.19481276 -0.055347838
0003c0 44 3c b6 3d bc 8f a8 bd ae 6c 47 3d f3 12 b7 bc
       0.088982135 -0.0823054 0.04868763 -0.022347903
0003d0 53 a6 26 3e be 1a 3e be 97 ba 4d 3e 73 e6 c5 3d
       0.16274385 -0.18564889 0.2009071 0.09663095
0003e0 5d 6a 00 3e 9d 0e 61 be 4d ca 09 be d3 1e 1b bd
       0.12540574 -0.21978231 -0.13456078 -0.037871193
0003f0 7d dd 23 3c 2f a0 12 bd 05 b1 08 3d 59 1f 12 be
       0.010001537 -0.035797294 0.033371944 -0.1426977

conv1.bias f4 [24]
000000 cf a6 a5 3d ba ce 34 3d 72 fa 81 3d 4d 1c 77 bd
       0.08088457 0.044142462 0.06346597 -0.060329724
000010 56 ea cc 3c db 2b ce bc 91 14 f2 bd 09 80 cf bd
       0.025014084 -0.025167396 -0.11820329 -0.10131843
000020 4a ff aa 3d 02 47 b6 bd 7e bb 5e bc 38 34 9e bd
       0.08349474 -0.089002624 -0.013594506 -0.07724804
000030 5d 15 ba bd 3f 33 89 3d 4f df 91 bd c2 49 06 bc
       -0.09086106 0.066992275 -0.07122671 -0.008196296
000040 9d b2 ba bd aa 53 d1 3d 7e 8f 27 3c 5a e5 d6 bd
       -0.09116099 0.10221036 0.010227082 -0.10492964
000050 6a 60 b1 bd b6 44 13 bd a0 ee d4 3d b3 bb ac bd
       -0.08660968 -0.0359542 0.103970766 -0.08434238

conv2.weight f4 [56, 24, 7, 7]
000000 8b 00 0f bd 63 73 a4 3c 39 ed 98 3b fc 8e 0c 3a
       -0.034912627 0.020074552 0.004666951 0.00053618825
000010 6c 5e 34 3c 82 5d 14 3d 27 99 9d bc da 64 33 3d
       0.01100884 0.03622199 -0.019238068 0.04379735
000020 9e f2 90 3c 01 58 99 3c ca 59 25 bc bb d3 9f bb
       0.017693814 0.018718721 -0.010092208 -0.004877535
000030 06 98 18 bc 99 60 56 3d ba 88 89 39 d5 0b c2 bc
       -0.009313589 0.052338216 0.00026232545 -0.023687283
000040 24 1b 0e 3d 69 06 15 3c f8 29 af 38 e0 dc ed 3c
       0.034693852 0.009095767 8.3524676e-05 0.029035985
000050 08 a3 83 3c c9 c7 1e 3c 90 96 8f b9 72 f8 5f bc
       0.01606895 0.009691187 -0.00027387263 -0.013670074
000060 5a 89 4b bc f6 a3 29 3d c9 60 24 3c d2 ae f2 3b
       -0.012422884 0.04141613 0.010032841 0.007406094
000070 17 f2 1a bb 8c 66 7c 3b 1c f9 92 3c 01 a1 6a 3c
       -0.0023642832 0.003851327 0.01794105 0.014320613
000080 69 28 88 3c 0f e0 76 bb 5c 66 c5 bb 8c 9e ab bc
       0.016620832 -0.003767017 -0.006024165 -0.020949624
000090 b7 94 00 3a 38 8b 27 3d 09 93 05 ba e6 89 46 3d
       0.0004904973 0.040904254 -0.00050954573 0.048471354
0000a0 a1 45 59 3c 64 f3 55 b7 d9 45 f2 3c 5c d6 f3 3c
       0.01326123 -1.2752458e-05 0.029574322 0.0297653
0000b0 c0 ad 05 3d 93 08 20 3c 54 57 49 3d eb 1a 4d 3d
       0.032636404 0.009767669 0.04915555 0.0500745
0000c0 20 ac ba 3c 57 10 a6 3c f5 57 97 bc b3 27 13 3d
       0.022787154 0.020271463 -0.018474558 0.035926532
0000d0 76 0a 13 3d 8c 51 35 3c 7d 7d ad 3c 0a f1 f5 3c
       0.03589865 0.011066806 0.021178002 0.030022163
0000e0 85 a7 76 b8 14 25 07 3d ad 52 ae 3c 4d 91 a6 3c
       -5.8806985e-05 0.032994345 0.021279657 0.020332957
0000f0 66 41 05 3d c0 04 2e 3d ea bd 64 bc a0 26 e8 3b
       0.032533072 0.042485 -0.013961295 0.0070846826
000100 1f 2c 89 3b 55 1d c7 3c 08 f5 45 3c 36 63 3c bc
       0.004186168 0.024305979 0.012082346 -0.011498263
000110 4d e9 b5 3c 08 c6 26 3c c4 81 9a ba 7d 24 35 bb
       0.022205973 0.01017905 -0.0011787941 -0.0027640157
000120 41 b5 d3 3c 69 46 4b bd ef da d7 ba f0 b0 0c 3d
       0.025843265 -0.049627695 -0.0016468446 0.03434843
000130 1e 91 17 3d 1e 03 e6 3c f5 39 f7 bc fb 41 f4 bb
       0.03700363 0.028077658 -0.030179003 -0.0074541545
000140 3e 1f d8 bc 41 89 a7 bc 69 4f f5 3c b2 9e 63 3c
       -0.026382085 -0.02045119 0.029945092 0.013892816
000150 91 6b a2 bc 1d 03 de 3b 20 4e 78 3c 91 73 cf bb
       -0.019826682 0.0067752735 0.015155345 -0.0063309153
000160 d6 53 b5 3c 41 07 11 3c 81 d3 d5 bc 1c 41 97 3b
       0.022134703 0.008851827 -0.02610183 0.004615916
000170 00 fe 08 3d 1b 1c c7 3c c5 a9 24 39 73 d8 2c bc
       0.03344536 0.024305394 0.00015703503 -0.010549652
000180 45 cf a7 bc f6 51 1a 3c df b3 d5 3b a0 09 bd 3c
       -0.020484576 0.009418955 0.0065216864 0.023075879
000190 79 a2 a4 bb 93 06 00 3d 27 e6 d5 3c 66 47 5e 3d
       -0.005024251 0.03125627 0.026110722 0.05426731
0001a0 7c c5 da 3b 86 b3 02 3d 98 f2 8c 3b d6 ea 67 3c
       0.006676374 0.03190949 0.0043013804 0.01415511
0001b0 38 f1 f5 3c bf 97 60 3d 6f 01 97 3c 9a e0 70 3c
       0.030022249 0.054832216 0.0184333 0.014701987
0001c0 53 5b 39 ba 42 d3 b2 3c 0c ce e1 bb 2f 42 95 bc
       -0.00070707983 0.021829251 -0.006891018 -0.018220035
0001d0 19 cd b6 bb 7a 51 d2 bb bf 5f fb 3b 97 2f dd 3c
       -0.0055786488 -0.006418404 0.007671326 0.027000232
0001e0 d8 e2 17 3d 21 3f bf 3c 8a a1 b2 bc 66 dc d9 bb
       0.03708157 0.023345532 -0.021805543 -0.006648588
0001f0 ce fd 92 39 c5 89 6f bb 15 cc 01 bc f1 01 86 3b
       0.0002803639 -0.0036550623 -0.007922192 0.004089587
000200 be 81 e4 3c 6e cb c8 3c 22 ca c2 3c ce b4 07 bc
       0.027893897 0.024511065 0.023778025 -0.008282853
000210 72 bb 3a bc aa 37 29 3d 0d 87 65 3c 93 9d 34 3d
       -0.0113972295 0.04131285 0.014009249 0.044095587
000220 9d b9 82 3c 2f 45 0c 3d 69 3a 88 3c b7 7b b9 3c
       0.015957648 0.034245666 0.016629415 0.022642
000230 db b7 5f 3d 6a d3 75 3a fd e3 c9 3c 33 7e dd 3c
       0.054618698 0.00093775115 0.024644846 0.027037716
000240 71 66 cf bc f8 c2 9b 3c ea 47 b7 bc 4f 4a d1 bb
       -0.025317403 0.019013867 -0.022373158 -0.006387032
000250 5f 16 93 3c 62 a7 e2 3c 24 55 85 bc 1b 1c c6 bc
       0.017955003 0.027667705 -0.01627595 -0.024183324
000260 b7 23 2d 3c bd 7c f4 bb 22 3d a9 39 13 e0 af 3c
       0.010567597 -0.007461159 0.0003227974 0.021469152
000270 76 ef 3a 3b 35 4b 13 bd fc ef 9c 3c 23 91 27 3c
       0.0028524077 -0.035960395 0.019157402 0.010227474
000280 41 1f cc 3c 76 aa 15 3d 5b cc 7c bd 5b 39 52 bc
       0.024917247 0.036539517 -0.061718326 -0.012831057
000290 8c 31 44 bd 57 fe f3 bd 7e bf 57 3c c9 0c 32 3d
       -0.047898814 -0.11913746 0.013168214 0.043469224
0002a0 f7 b7 f0 bc b4 a2 66 3c 0b e5 41 bc 1a 15 ac bb
       -0.029384596 0.014076877 -0.011834393 -0.005251539
0002b0 a7 c2 a7 3c f3 35 36 3d 8c 1f 85 bd fa 0c bc bc
       0.02047856 0.044485044 -0.06500158 -0.022955406
0002c0 d5 8d 29 bc 5e 34 c7 3c 50 62 58 39 2e 05 12 3d
       -0.010348757 0.024316963 0.0002063599 0.03564947
0002d0 f0 f5 8b bb 05 0c 76 bd 7e 3c 42 3d e8 7a dd bc
       -0.0042712614 -0.060070056 0.04742097 -0.027036145
0002e0 10 5a dc 3b 1a cb 56 bd 50 75 7e 3b e1 84 05 3d
       0.0067246035 -0.052439786 0.0038827248 0.032597426
0002f0 ec d0 63 bd 59 ad 6f 3d 21 49 8c bc e6 c3 f8 bc
       -0.055619165 0.058514927 -0.017124714 -0.03036685
000300 e5 14 f8 bb b6 81 92 3c 67 75 14 bd 92 aa db 3c
       -0.00757085 0.017884117 -0.036244776 0.026814733
000310 86 b0 16 bc 95 36 6b ba fb ff 28 3d 35 03 37 3c
       -0.00919736 -0.0008972672 0.041259747 0.011170198
000320 91 20 09 bb 3d 46 4f 3d 59 33 02 3c 26 e6 02 bd
       -0.0020923952 0.050604094 0.007946813 -0.031957768
000330 f3 a2 8a 3d 96 db 9a 3b a6 38 05 bc 3a 7e 13 3c
       0.06769361 0.0047258837 -0.008131182 0.009002263
000340 b6 dd ae 3c 29 54 00 bc d7 34 f8 3c 34 5f 1d 3d
       0.021345954 -0.007832565 0.030298634 0.03842087
000350 ac 0f a0 bc 84 98 00 bd 53 5b 19 3c 8f 4f d1 bc
       -0.019538723 -0.03139545 0.009360152 -0.025550632
000360 cf da ff 3b c9 0d 12 3c 0a 55 06 bc f3 19 7c bc
       0.0078080664 0.008914419 -0.008198986 -0.015387046
000370 ad f0 e0 bc 00 bb b9 3c 80 a0 2e bb c4 1d 65 bc
       -0.027458513 0.022672176 -0.0026645958 -0.013984147
000380 26 6d ac bb 28 8c 39 bc 99 97 36 3c 72 32 99 3c
       -0.005262035 -0.01132492 0.011144542 0.018700812
000390 75 66 2e bc 19 a7 13 bb 64 65 cd 3a 47 97 29 bd
       -0.010644545 -0.0022530018 0.0015670476 -0.041404035
0003a0 2c 6a be bb 8f 0d 0a bb 11 1d 0e bd 1b e5 04 3c
       -0.0058109965 -0.002106521 -0.03469569 0.008111264
0003b0 83 4b 52 b9 26 8b 2b 3d 11 6c 43 3c 13 8c 74 bc
       -0.00020055291 0.04188075 0.0119276205 -0.014925974
0003c0 40 f2 2b 3d 73 ec 58 3d c8 06 49 3c 99 0d 8e 3c
       0.041979074 0.05295987 0.012269683 0.017340468
0003d0 2a 83 b4 3d 1f 26 f6 bb 70 12 1a bd 8b 13 8d 3c
       0.0881408 -0.0075118686 -0.03761524 0.017221233
0003e0 c1 e4 e0 3b f3 84 1f bc 8e 77 d4 bc 3d 07 55 bc
       0.006863207 -0.009736287 -0.025935914 -0.013002214
0003f0 48 63 2b 3d d7 ce be 3c bc dc 3a 3d 7b e6 88 bc
       0.04184273 0.023291988 0.045620665 -0.016711464

conv2.bias f4 [56]
000000 5c 18 87 b8 75 94 e9 bc ad ef 9a 3c bf 09 00 bb
       -6.441839e-05 -0.028513173 0.018913114 -0.001953706
000010 07 b8 5c bc 37 7d 5c 3c 89 4e be bb dd d5 87 bc
       -0.01347161 0.013457588 -0.005807702 -0.01658147
000020 09 17 e8 bc 4f e8 99 bc 7a f4 00 bd 8f 61 b8 ba
       -0.028331297 -0.018787531 -0.03148315 -0.0014067161
000030 b7 c0 20 bb 48 17 2c ba 1d 13 02 bd 4a 02 ba 3c
       -0.002452893 -0.00065647485 -0.03175651 0.02270617
000040 26 1e 86 3b f0 01 57 3c 77 ed a0 bc dc 0d 77 bb
       0.0040929494 0.0131230205 -0.019644482 -0.003769747
000050 06 79 82 bc 92 64 87 bc 7d ef d7 3c 8b 1f 3d 3b
       -0.01592685 -0.016527448 0.026359314 0.0028857912
000060 e9 19 97 3c 0d 35 bb ba a5 27 d1 ba 81 a8 a1 bc
       0.018444972 -0.0014282778 -0.001595725 -0.01973367
000070 c8 ed 1d 3d 10 82 bf bc a9 1d bd bc ff 54 a5 bc
       0.038556844 -0.023377448 -0.023085432 -0.02018213
000080 7a 1c 84 3c cb 17 b0 bc 1b 9f 91 3c 02 44 1c 3d
       0.01612686 -0.02149572 0.017776063 0.038150795
000090 5c 83 b0 3c f0 ad 94 3b a2 81 89 3c 0d 7f 31 bd
       0.021547012 0.0045373365 0.016785447 -0.043334056
0000a0 73 4f 85 3c 9c 42 e9 bc 8a 55 9d bc 41 97 24 bc
       0.016273236 -0.028474145 -0.019205827 -0.010045827
0000b0 63 2c 13 3c d5 69 c2 bb 0a 0c 7b bc af 67 8a ba
       0.008982751 -0.0059330263 -0.015322695 -0.0010559465
0000c0 10 c1 39 3c 96 aa 41 bc 0f 2e 56 3c 93 03 b7 bc
       0.011337534 -0.011820456 0.013072505 -0.022340572
0000d0 9d ed 74 3c 79 82 d2 bb 37 57 93 3c 28 90 96 3c
       0.01494923 -0.006424245 0.017985923 0.018379286

fc1.weight f4 [120, 168]
000000 b9 36 e5 3b e9 4d 59 3d bf 49 73 3c bc 02 12 3d
       0.006995049 0.053052817 0.014849125 0.03564714
000010 01 a7 48 bd 2d 5b c4 bb b5 ce 86 bd 33 b5 4c 3d
       -0.048987392 -0.0059923143 -0.06582395 0.049977493
000020 41 cc 1f 3d fc 6c 5b 3d ea ea 90 bd 3d a8 44 bd
       0.03901315 0.053570732 -0.07076056 -0.048012007
000030 39 7a 94 bc 96 0c 77 3d eb 35 24 bc c9 36 89 3d
       -0.018124687 0.060314737 -0.010022621 0.066999026
000040 f4 e0 2f 3d 8f 19 d6 bd 73 d2 11 bc 66 09 f1 3c
       0.04293914 -0.10454094 -0.008900273 0.029423427
000050 ed 00 0f bd ac af 7d bc 2a 99 01 3d 0e 4f 85 3d
       -0.034912992 -0.015483778 0.03164021 0.06509219
000060 f6 d0 28 3c f1 cd 8e bc 8e f1 83 3d d6 04 8b bd
       0.010303726 -0.017432185 0.06442557 -0.06788032
000070 ba a3 71 3b 08 1e a4 3c 47 40 25 3d 35 d3 e7 bc
       0.003687127 0.020033851 0.040344503 -0.028298954
000080 98 ad 1b 3c 18 ce 5c bd bc e5 2b 3d cc 76 ba 3c
       0.009501837 -0.053907484 0.04196714 0.022761725
000090 3b a8 6b bd d0 47 1f bc 1f 33 9c bd 28 b9 d1 bd
       -0.057533484 -0.009721711 -0.07626938 -0.10240394
0000a0 6d b8 83 3d cd 06 f7 3c ea 33 9e 3d 82 08 92 3b
       0.06431661 0.03015461 0.077247456 0.0044565806
0000b0 c2 ac 9a 3d d0 b0 6f 3d 77 bc 48 3c 2d d4 5a 3d
       0.07552482 0.05851823 0.012251965 0.053425003
0000c0 bf c8 48 3c ee 86 aa bd 71 b1 c5 bc 0a 54 39 3d
       0.012254893 -0.08326517 -0.024132462 0.04524616
0000d0 21 99 27 bd 17 81 05 be a6 c6 a1 3c 51 60 e2 3c
       -0.04091752 -0.13037525 0.019748043 0.027633818
0000e0 7f e4 8b bd 55 ac cc 3d 4f 53 f5 bc c0 84 2a 3c
       -0.068306915 0.09993807 -0.029946951 0.010407627
0000f0 5d 97 8a bd 3b f2 cd bb 2b 75 68 bd a9 5a 4e bd
       -0.067671515 -0.0062849796 -0.056752365 -0.05037943
000100 b0 6a 97 bc 3b 43 3b bc 64 f7 50 3d d9 1b 8b bc
       -0.01848349 -0.011429603 0.05101718 -0.016981052
000110 7a 0f ba bd a2 10 ed 3d 13 7e 00 3b 8a a5 2e bd
       -0.09084983 0.11575438 0.0019606396 -0.04263834
000120 6a e2 49 bc eb 57 4b bd 98 3c 0b 3d 99 73 0b be
       -0.012322048 -0.049644392 0.033993334 -0.13618316
000130 e7 92 0b be 9b 6c 69 3e f5 dd ed bb 45 4f 46 3d
       -0.13630258 0.22795336 -0.0072591254 0.04841544
000140 61 90 22 bd 7d f9 5b 3d 72 de 48 3d 8b 58 83 3d
       -0.03968847 0.053704727 0.049040265 0.064133726
000150 57 f3 4b bd ff 6c fc 3c 79 e8 6e bd 77 9a d4 bc
       -0.049792614 0.030813692 -0.058327172 -0.02595256
000160 f6 9a 6f bd 25 e8 e8 3c 7b 1e 36 bd 5f 13 1b 3d
       -0.05849739 0.028431008 -0.044462662 0.03786027
000170 e0 44 24 3d f0 8b 5f bc f1 72 df bc 92 35 b5 3c
       0.040104747 -0.013644204 -0.027276488 0.02212027
000180 82 58 3c bd 7a 5c 05 3d cf 2a 6d bd 28 08 42 bd
       -0.045982845 0.032558896 -0.057902154 -0.04737106
000190 5e 89 ca bd 86 f4 97 3c 87 15 17 3d c2 7a 29 3d
       -0.09889482 0.018549215 0.036885764 0.041376837
0001a0 bf 16 11 bd ca a8 81 3d c8 3c 50 3d a1 63 46 bd
       -0.035422083 0.06331022 0.050839216 -0.048434857
0001b0 d6 e7 27 bc 40 47 5f 3d 46 34 8e bb 6d 9c 59 bc
       -0.010248145 0.05451131 -0.0043397276 -0.013281924
0001c0 25 b5 77 3c 36 9e 9e 3c 53 0b 5c bc 88 e1 a3 bc
       0.015118872 0.01936255 -0.013430434 -0.020005003
0001d0 b1 f2 d7 bc db c0 b8 3b ed 4e 99 bc 31 01 68 bd
       -0.026360841 0.0056382245 -0.018714393 -0.05664176
0001e0 c0 1d 64 bd ae 6e b7 bd b9 99 99 3d 8a f2 89 3d
       -0.055692434 -0.08956657 0.075000234 0.06735714
0001f0 29 d5 14 bd 12 1f 89 bd ff f2 1c bd c9 94 9c bd
       -0.036336098 -0.06695379 -0.038317677 -0.07645566
000200 5f cb 97 bd aa 74 81 bc 84 74 48 bb 71 86 78 bc
       -0.07411837 -0.0158027 -0.0030587027 -0.015168772
000210 76 59 27 bd 27 a0 5a bd 1f dd 11 3d 00 8a 65 3c
       -0.0408568 -0.05337539 0.035611268 0.014009953
000220 e0 07 df 3a 71 98 4b bd be 33 44 3c 7e bb 93 bd
       0.0017015897 -0.049705926 0.011975227 -0.07213496
000230 6d 6b e9 bb 44 9d 00 be 70 56 6f 3d 47 2b 47 3d
       -0.007123402 -0.12559992 0.058432043 0.048625257
000240 21 b3 20 bd 0e 5f 29 3c 02 dd 51 3c 0c ee 22 3d
       -0.03923333 0.010337604 0.01280904 0.0397778
000250 58 89 36 3c a0 aa 72 bd dd 20 09 3b dc 98 33 bd
       0.011141144 -0.059244752 0.002092413 -0.04384695
000260 30 48 df ba 19 1e e7 3c 2b 02 9d bc 83 9d 6f 3d
       -0.0017035063 0.028212594 -0.019166073 0.058499824
000270 60 5a 14 3c 4e 41 0f bd 6c 0f 90 bd 77 34 9b bd
       0.00905475 -0.03497439 -0.070341915 -0.07578366
000280 ba ad 9f bd c6 e8 9c 3c 1b ea aa ba 56 bf 18 3d
       -0.077968076 0.019153964 -0.001303974 0.037291847
000290 97 40 2d 3d 90 5b 19 3d 37 9a 38 3d d1 98 8e bd
       0.042297926 0.037440836 0.045068946 -0.06962741
0002a0 7d 98 2f bd c5 2c 7a 3d a8 96 84 3d 44 dc 19 bd
       -0.042870034 0.06107785 0.06474048 -0.037563577
0002b0 5f 61 84 3d 25 13 46 3d e2 03 2d 3d 8b 61 93 3d
       0.064638846 0.0483581 0.04224003 0.07196339
0002c0 89 cc eb bd 05 44 b8 3c 94 f3 28 3d f5 2b 89 bd
       -0.11513621 0.022493372 0.04124792 -0.06697837
0002d0 01 04 33 3d 2a b3 25 bd 30 a7 94 bd 10 43 89 3d
       0.04370499 -0.040454067 -0.07258451 0.06702244
0002e0 ff b5 00 be c3 b0 1a 3d 88 bf 2c bd 40 11 82 bd
       -0.12569426 0.03776623 -0.042174846 -0.063509464
0002f0 37 86 2a bc ab 91 ea bc 38 02 5b 3d cc 5e 64 bc
       -0.010407976 -0.028633913 0.053468913 -0.013938617
000300 98 8b cd ba d0 16 ec 3b b7 60 36 bd b5 f7 06 bb
       -0.0015681861 0.007204868 -0.04452583 -0.0020594422
000310 b7 56 47 bd 32 1a 68 bd 58 6c aa bd 27 8b 6a bd
       -0.048666682 -0.056665607 -0.08321446 -0.057261612
000320 14 ef d0 bc 53 18 89 3d 50 a4 98 bc fc a3 a8 bc
       -0.025504626 0.066940926 -0.018633038 -0.020586006
000330 ae 3d 9e 3c 70 ff 68 bd f2 6f f7 bb 29 2d ac 3a
       0.01931652 -0.05688423 -0.0075511867 0.0013136017
000340 f1 42 ef 3d f6 8a c1 bd 48 e6 73 bd 0b 71 a5 3c
       0.1168269 -0.09450333 -0.059545785 0.020195505
000350 1f 93 f0 3b 52 4f 03 bd 7c cc 68 bd cb e8 11 3d
       0.007341757 -0.032058068 -0.056835636 0.0356224
000360 23 58 8a 3d 3f 18 91 3d cd 8e ae bd 88 53 02 3c
       0.06755092 0.07084703 -0.08523331 0.007954486
000370 d3 04 84 3d 59 63 ad bd 2c 2f 20 bd c7 03 c2 bc
       0.06446233 -0.08466215 -0.039107487 -0.023683442
000380 a3 2a 35 bc d5 47 3d 3c c6 bd d5 3c 48 2f 3d bd
       -0.011057529 0.011552771 0.026091468 -0.04618767
000390 3b 6d 55 3c fc 33 9f 3b 91 ea 82 bd 5c f5 17 bc
       0.013026531 0.004858492 -0.06392396 -0.009274807
0003a0 4f 40 46 bd c6 a4 55 bb a4 ea b5 3d 36 7e 27 bd
       -0.048401173 -0.0032599433 0.08882645 -0.04089185
0003b0 62 35 e2 3c b6 ce 0f bc 0a 08 19 bd 19 32 27 3d
       0.027613346 -0.008777311 -0.037361182 0.04081926
0003c0 1a be c5 3b 6b 75 e0 bd fd 3d 5c bd d4 3a c1 bd
       0.0060346248 -0.10959896 -0.053770054 -0.09435049
0003d0 cb 43 1b bc 2e 7b a9 3d 4e 29 25 3d d2 3a 01 3c
       -0.009476612 0.08275448 0.040322594 0.007887559
0003e0 be 56 88 3a 7a c9 99 3d e2 a7 87 bd 07 ed a5 3c
       0.0010401828 0.07509132 -0.06623818 0.020254625
0003f0 4a 77 2a bd 47 c6 0a bb 48 35 69 3d 3e aa 4b bd
       -0.04161767 -0.0021175311 0.05693558 -0.049722902

fc1.bias f4 [120]
000000 ba 2f 25 3c e4 d2 77 3b a1 7b 22 bd a2 f1 15 bd
       0.01008218 0.003781491 -0.039668683 -0.036607392
000010 eb 1d 12 bd 51 ac 41 3d 90 71 ed 3d 27 13 72 bd
       -0.035673063 0.047283474 0.11593926 -0.059100296
000020 40 92 0b bc d8 86 66 3d 54 fb 74 bb 94 5e 85 3b
       -0.008518755 0.05628094 -0.0037381249 0.0040701125
000030 8f 1e 3f bd f2 f1 0e bd e8 02 1c 3d d8 1b 2f bd
       -0.046660002 -0.034898706 0.03808871 -0.042751163
000040 3a eb a9 bd 2d f7 a2 3c 76 06 78 3d 89 11 a0 bd
       -0.08296819 0.019893253 0.060553037 -0.078158446
000050 ad a7 8d bd b9 bb 85 3d 27 3d 1e 3c d1 0b 92 bd
       -0.06916747 0.06529946 0.009658135 -0.0713116
000060 d1 62 cd bc 93 bd db 3d 12 17 82 3d 6d 8c 85 ba
       -0.025071533 0.10729518 0.063520566 -0.0010188945
000070 39 9a b4 3d 55 dc a0 bd b8 69 06 3d 9c d6 35 3d
       0.08818478 -0.07854525 0.032815665 0.04439412
000080 55 aa bc 3d 0f 9f e3 3d 87 18 b4 3d 2a fc 8b 3d
       0.09212176 0.111143224 0.08793741 0.06835206
000090 3b 82 11 bd fd db 75 3d 32 2d 56 3d 7b ad 67 bd
       -0.035524588 0.06002425 0.052289195 -0.05656193
0000a0 9b 18 40 3c 08 86 1f 3d b8 b1 9f 39 10 3b 96 3d
       0.011724616 0.03894618 0.00030459254 0.07335484
0000b0 a3 f7 57 bd 56 ef 93 3b 4e f3 17 3d 7c 04 c3 3c
       -0.0527264 0.004514615 0.037097268 0.02380585
0000c0 07 93 2e 3d 22 58 58 3d f9 df b6 bb 3a 4d 81 3d
       0.042620685 0.052818425 -0.005580899 0.06313558
0000d0 59 85 21 3d 8f 5e d2 3d da 2d 86 3d cf 3e 88 3c
       0.03943381 0.10271942 0.06551714 0.016631512
0000e0 3c 99 0a bd 4a 78 3c bd 95 b3 e6 3c 79 98 74 3c
       -0.033837542 -0.046013154 0.028161803 0.01492893
0000f0 78 61 d4 3c da 51 98 bc fe 50 0c 3d 36 57 84 3c
       0.025925383 -0.018593717 0.034256928 0.016154867
000100 59 e0 e2 bc f1 4d aa bd 7f 3f 53 3d 06 f8 35 3d
       -0.027694868 -0.083156474 0.051574226 0.044425987
000110 df 5c c8 3d 75 96 dc 3d 00 fc fe 3b 0b f3 34 3d
       0.09783339 0.10770885 0.0077815056 0.044177096
000120 ac 04 01 3d 1d 55 97 3d e6 98 46 3d 18 0e 28 bd
       0.031498596 0.07389281 0.04848566 -0.041029066
000130 3b 69 74 bd 01 cb 9c bd 56 7b bb 3d 13 38 b0 bc
       -0.059670668 -0.076559074 0.09154384 -0.021511113
000140 cc 25 ce bc 2c 55 d9 3c 1c da 57 3d 53 94 3a 3d
       -0.025164507 0.02652987 0.05269824 0.04555161
000150 6d 54 06 3c 87 01 97 bd c8 40 24 bd 8b c3 71 3d
       0.00819884 -0.07373338 -0.040100843 0.059024375
000160 19 69 cb 3d 95 b7 4b 3d ac 94 71 3d 82 25 71 3c
       0.09932155 0.049735624 0.058979675 0.014718415
000170 eb ab a3 3d 27 e8 18 3c da 5f ec 3d 26 e0 cd 3c
       0.07991775 0.009332693 0.1154172 0.025131296
000180 dc 1a 51 bd 4c fc b9 bd 6a 54 b7 3d a3 4a b3 3d
       -0.051051006 -0.09081325 0.089516476 0.0875447
000190 db 28 25 3d 5e 96 16 3b 3f 17 4e 3b 3d 8b 0f bd
       0.040322166 0.002297781 0.0031446961 -0.035044897
0001a0 ec 9d ad 3d 5c 52 70 3c e8 74 0b 3d e0 42 1c 3d
       0.08477387 0.0146680735 0.034047037 0.038149714
0001b0 5b 4d dc bc d1 5c 29 3d 8b 44 77 bc 9e a3 e6 3d
       -0.026892355 0.041348282 -0.0150920255 0.11261676
0001c0 1b 0b 60 3b 2d ca dc 3d 6b 11 b0 bd f7 f6 45 3d
       0.0034186307 0.107807495 -0.08597072 0.048331227
0001d0 b0 f1 42 bd b0 69 ef 3c 0c 9b ac 3c b6 5e 87 3d
       -0.047593772 0.0292252 0.021070026 0.066098616

fc2.weight f4 [84, 120]
000000 a0 18 4f 3d b1 4b e1 bd 89 51 e5 3c b9 48 f3 bc
       0.050560594 -0.11000765 0.02799298 -0.029697763
000010 63 88 95 ba 2f d4 00 3c ba b2 d3 bd 39 86 22 bd
       -0.0011408444 0.0078630885 -0.10336824 -0.039678786
000020 bf c8 4a 3d 44 58 9c 3c a3 cd 62 3d 80 9f 4e 3d
       0.049507853 0.019085057 0.05537189 0.05044508
000030 b9 78 75 bd 46 2d a7 3d 55 c3 c3 bd 8b 99 9c bd
       -0.059929583 0.08162932 -0.09558741 -0.076464735
000040 8d b3 ed bc 37 83 b5 bc 72 03 d5 bc 73 73 49 bd
       -0.02901628 -0.022157295 -0.02600262 -0.049182367
000050 24 3e 83 bd 98 35 5c bd c5 c1 8a 3d 1c 4e 36 bd
       -0.06408337 -0.05376205 0.0677524 -0.044508085
000060 01 b7 0a bd 96 b2 f8 3c dd f1 98 bd 76 21 32 3c
       -0.033865932 0.030358594 -0.07468007 0.0108722355
000070 63 c6 da bc b6 9f 7c 3d 3b 14 13 bd 28 6e 5c bd
       -0.026705926 0.06167575 -0.035907965 -0.05381599
000080 0e 9c f3 3b ae cc af bc f6 a3 64 3d 3c dc 9e 3d
       0.0074343747 -0.021459904 0.055820428 0.0775685
000090 a5 c8 8e 3d ea 8e 82 bd 1b 38 25 3d 86 a0 0c bd
       0.06971864 -0.06374915 0.04033671 -0.034332775
0000a0 12 46 a4 3b 5b ac ac bb 0e bc a6 bd 6b 19 d7 bd
       0.005013236 -0.00526957 -0.08141337 -0.10502895
0000b0 08 df 9b 3a 71 43 61 3d a0 42 d9 bc 6e 7f b1 3d
       0.001189203 0.054995958 -0.026521027 0.086668834
0000c0 9d ef aa bc e1 09 4b bd 20 cc ae bd 2e a9 44 bd
       -0.02086621 -0.049569968 -0.085350275 -0.048012905
0000d0 9f da 69 bd 93 cc 03 3c 5a 2f 88 3d 84 b4 53 3d
       -0.05709326 0.00804438 0.066496566 0.051685825
0000e0 5a ad 7d bd 6f 35 05 3c 24 0a 70 bd 9f 97 8d 3d
       -0.0619329 0.008130415 -0.05860342 0.06913685
0000f0 f9 9b 34 3c 81 79 a5 bd 4e da b1 3d ce 36 19 3d
       0.011023515 -0.08079816 0.086842164 0.03740578
000100 97 bf 2f 3d a0 df ce bc ce 31 65 3d 77 81 95 bc
       0.042907324 -0.025253117 0.0559557 -0.01825021
000110 03 5e b2 bd a3 3c 04 bc 4f 1a cc bd 24 ac 64 3d
       -0.087093376 -0.008071098 -0.099659555 0.05582823
000120 8d 1e 09 bd 1d b9 c0 ba cf 64 80 bd 7d 90 4a 3d
       -0.0334764 -0.0014703606 -0.06269228 0.0494542
000130 79 9f c2 bc d7 0e e9 bc f4 cd 81 3c 3a 05 a0 3c
       -0.023757683 -0.028449459 0.015845276 0.019533742
000140 44 1b aa bc e6 94 85 bd 95 f9 8e bd 1e be cb bd
       -0.020764954 -0.06522541 -0.06981198 -0.09948371
000150 67 5a 8e bd 38 17 5c 3d f5 7f 02 3d 10 94 91 3c
       -0.06950837 0.05373308 0.03186031 0.017770797
000160 c3 68 87 bb ed 33 33 bd 88 b0 7d 3c f6 0b 67 bd
       -0.0041323616 -0.043750692 0.015483983 -0.05640789
000170 d2 03 88 bd 1a e3 b8 bc 27 b4 d0 bd ba c6 3d 3d
       -0.06641354 -0.022569228 -0.10190611 0.0463321
000180 c2 44 96 3d 9b e8 1c bd 97 71 6b 3d fa df b3 bd
       0.07337333 -0.038307767 0.057481375 -0.087829545
000190 cc 0f 89 3c f7 86 74 bd c3 71 26 bc f1 1f 81 3c
       0.016731165 -0.059699025 -0.010158959 0.015762301
0001a0 e0 bb 86 bd 2a 77 27 bd 57 d8 89 bd c7 58 a0 3d
       -0.06578803 -0.040885128 -0.06730717 0.07829433
0001b0 81 80 85 bd ec 11 4b 3d 4c 31 8b 3b 26 c9 7f bd
       -0.06518651 0.04957764 0.00424782 -0.06244769
0001c0 55 84 86 bc b8 99 27 3d f5 8b 55 bd ae ad e0 bd
       -0.016420523 0.040918082 -0.052135427 -0.10970627
0001d0 64 06 60 3d 9b d5 a4 bd 43 ab c2 bb 4c e4 60 3b
       0.054693595 -0.080485545 -0.005940826 0.0034315763
0001e0 b4 95 29 bd f1 e5 2e bc a9 07 61 3d be 35 d0 3c
       -0.041402534 -0.0106749395 0.054938946 0.025416251
0001f0 58 29 9b 3d 0e 63 ea 3c b5 23 ce 3c 24 1c 9b 3c
       0.07576245 0.028611686 0.02516351 0.018934317
000200 7a a7 53 bd 71 f4 a2 3d bf 49 27 bd cd d7 2c 3d
       -0.05167339 0.0795678 -0.040841814 0.04219799
000210 c3 75 3d bd 01 a4 27 bc 23 db 7e bd 69 2b 64 bd
       -0.046254884 -0.010231973 -0.062220704 -0.05570546
000220 fe 40 ae bd 28 54 c6 3c 6c 75 53 bd 04 42 ad bc
       -0.0850849 0.02421005 -0.051625654 -0.021149643
000230 d4 d6 04 3d c9 ff 29 bd a5 7b 32 3c 73 89 96 3c
       0.03243144 -0.0415037 0.010893737 0.018376088
000240 ed 28 9b 3c 66 21 29 bd 4d 44 93 3d 99 60 a7 bd
       0.018940413 -0.041291617 0.07190762 -0.081727214
000250 c9 c0 a3 bc 5f 02 25 3d ae 85 a0 bd 6a 1f 1d bd
       -0.019989388 0.040285464 -0.078379974 -0.038360037
000260 e6 01 5e bc d8 93 51 3d 0c 67 8a bd 13 56 79 bd
       -0.013550257 0.051166385 -0.06757936 -0.060873102
000270 e2 67 27 bd e1 ca aa 3d 57 62 86 bd 02 ab ea 3a
       -0.040870555 0.08339477 -0.065617256 0.0017903748
000280 71 52 a7 bd 5b e4 8c bc 40 33 5a bd a4 36 b2 bd
       -0.08170021 -0.017198732 -0.053271532 -0.08701828
000290 6a 05 db 3c f1 12 b0 bd 16 fa 3b 3d 98 81 a1 bd
       0.02673598 -0.08597363 0.045892797 -0.07886046
0002a0 65 11 13 3d 7d 64 84 bd f4 92 a7 bd 9d a9 11 bc
       0.03590526 -0.06464479 -0.08182326 -0.008890537
0002b0 60 6a ea 3c 85 dc 45 bd d3 3f 66 bd a3 75 79 3d
       0.028615177 -0.048306007 -0.05621321 0.060903203
0002c0 41 42 9f bc 00 e1 b3 39 d1 f3 18 bd c8 c2 8f 3d
       -0.019440772 0.0003430918 -0.037341896 0.070195735
0002d0 74 42 ac bd 08 e2 d4 3b 18 f3 28 3c 54 4c 3f bd
       -0.084111124 0.0064966716 0.010311864 -0.04670365
0002e0 87 5f 76 bd 84 15 65 bd 38 fb 8d 3d 7e ae fe bc
       -0.060149696 -0.055928722 0.06932682 -0.031089064
0002f0 e3 22 8e 3d 4f 3a 06 3d c6 bf 80 3d 12 c5 31 bb
       0.06940248 0.03277045 0.06286578 -0.002712552
000300 a3 e7 6f 3d e6 dd 89 bd 8c e2 bd 3d 04 55 f1 ba
       0.058570515 -0.06731777 0.09271726 -0.0018412177
000310 f0 75 a8 3d cf 46 a4 3c 9d 22 ee 3c 8c 0e 2f bd
       0.0822562 0.020053295 0.02906924 -0.042738482
000320 d3 48 15 3d 1c f7 5e 3d 84 46 81 bd 2c 04 91 bd
       0.036446404 0.05443488 -0.06312278 -0.07080874
000330 dd 0a 3b 3d 19 4b 91 bd 1b 62 8d 3d db b5 7b 3d
       0.045664657 -0.07094402 0.06903478 0.061452728
000340 a0 20 2b 3d bf af b7 3d bb 3f 48 3d 32 90 5b bc
       0.04177916 0.08969068 0.048888903 -0.013401078
000350 b8 2a 48 3d 99 a0 3a bb 3d dc 6e 3d 13 6e e6 3c
       0.048868865 -0.0028477071 0.058315504 0.02812866
000360 51 93 1a bd 2a fd cf 3c 6d f6 97 bd 73 16 6f 3d
       -0.037738148 0.025389273 -0.07420049 0.05837102
000370 e5 52 51 bd 88 11 c1 bc 36 0a 86 3d 58 21 58 bd
       -0.051104445 -0.02356793 0.06544916 -0.052766174
000380 a8 8b 70 bc 5c a4 a0 bd 1c 85 07 bd f6 1e 0d 3d
       -0.014681734 -0.07843849 -0.033085927 0.034453355
000390 6f e7 88 3d fe 7f 83 bd de 62 73 3d af a2 9f 3d
       0.066847675 -0.06420897 0.05942046 0.07794701
0003a0 83 d7 9e bd f2 5b 34 bd 62 1a 69 3d 38 5b 81 3a
       -0.07755949 -0.044033 0.056909926 0.0009869104
0003b0 55 93 a0 3c d7 ad 63 bc 75 ff 8e bd 5b 8b 90 bd
       0.019601503 -0.013896427 -0.06982318 -0.0705783
0003c0 51 5f a2 bd fe c7 d7 3c 85 11 aa bd fc 4d 41 bc
       -0.079283364 0.02634048 -0.08304123 -0.011798378
0003d0 38 a9 b5 3b 37 93 ef bc ae a8 63 ba cf 6e 47 bd
       0.005543854 -0.029245002 -0.0008684498 -0.04868966
0003e0 b6 aa 31 3b 53 31 8e 3b 0e 19 f2 3c 79 f8 b2 bd
       0.0027109808 0.004339376 0.029552963 -0.08738799
0003f0 6d 0d a2 3d ff 01 18 bd 86 c8 12 bd a6 ad 3d 3d
       0.07912717 -0.03711128 -0.035835765 0.046308182

fc2.bias f4 [84]
000000 67 57 d2 bd 66 ed 00 bd 86 44 c8 bd c9 ec 1d bc
       -0.10270577 -0.0314764 -0.09778695 -0.0096389735
000010 2e ab 96 bd 61 16 90 3d 53 ee 3b bd 6c 87 b1 bd
       -0.07356869 0.070355184 -0.04588158 -0.08668408
000020 8f 74 dc 3d a8 f2 12 bb fa 9c 0b 3c a2 43 bf 3d
       0.10764419 -0.0022422466 0.008521313 0.09339072
000030 36 94 96 bc 47 be 95 bd 87 9c 03 3c 4f 08 28 3c
       -0.01838122 -0.07311683 0.0080329245 0.010255887
000040 1b ee 5e bd 1b d9 da ba 59 ab 93 3d d0 02 ac 3b
       -0.054426294 -0.0016696783 0.07210416 0.0052493587
000050 6c 22 38 bd 9d 4c a1 3c f7 70 8a bd 5c 15 89 3d
       -0.044954702 0.019689852 -0.067598276 0.06693527
000060 3b 31 be bc a2 f2 97 bd 9c 4b b4 3d e7 b1 ec 3b
       -0.023216834 -0.074193254 0.08803484 0.007223356
000070 87 26 62 bd 38 8d 96 3d c2 2e 5a bd 9b 78 6e bd
       -0.055212524 0.07351154 -0.053267248 -0.058220487
000080 5e c6 bf 3d 74 28 08 3c 57 17 ae 3d 98 30 8f 3c
       0.093640074 0.008310426 0.085005455 0.017479226
000090 63 d6 69 bd e6 63 d9 bc 95 85 c3 bc 4e ad ca bc
       -0.05708922 -0.026536893 -0.023867408 -0.024740841
0000a0 16 f8 46 3d 21 b3 ab 3d ec 75 80 bd c8 24 ee 3c
       0.048576437 0.083837755 -0.06272492 0.029070273
0000b0 11 93 96 bd b7 33 05 3d 8c 41 65 bd 53 98 43 bd
       -0.073522694 0.032520022 -0.055970713 -0.04775269
0000c0 9c 60 08 bb 2a c9 b4 bd 40 36 7e 3d 21 ab b9 bb
       -0.0020809537 -0.088274315 0.062063456 -0.005666152
0000d0 9b f8 83 3d 55 c5 5a bc ce 2b b5 3d cd f1 e0 3d
       0.06443902 -0.013352712 0.08846246 0.1098362
0000e0 da 36 7b 3d c2 f3 21 bd 00 46 8c 3d 29 c4 43 bd
       0.061331607 -0.039539106 0.06849289 -0.047794495
0000f0 c5 0c 27 3c 76 86 b0 3c de 26 b2 bd 8f 5e 2e bd
       0.010195916 0.021548491 -0.086988196 -0.042570647
000100 94 d2 d0 3d fc 1e bb bc eb 2b 30 3d 41 87 ba 3d
       0.101964146 -0.022841923 0.043010633 0.09107829
000110 9d 28 72 bd d0 a5 09 3d 35 89 b5 3d 7a 22 f2 bc
       -0.059120763 0.033605397 0.08864061 -0.029557455
000120 51 33 e9 3d d4 09 d4 3c 82 4d 25 bd 87 13 7e bd
       0.11386741 0.025883593 -0.04035712 -0.06203034
000130 d7 ad 36 3d 7f 72 8d bd e2 a0 c9 3c b9 d5 8b bd
       0.04459938 -0.06906604 0.024612848 -0.06827874
000140 88 b9 83 bd f6 f3 b7 ba bb 2a 9d bd 53 26 09 3c
       -0.06431872 -0.0014034498 -0.07674166 0.008370954

fc3.weight f4 [5, 84]
000000 14 01 58 bd 59 33 88 bd f1 3d c5 bc df bd e8 bc
       -0.052735403 -0.06650419 -0.024077388 -0.02841085
000010 64 f0 18 bd c1 ac a3 3d 61 97 42 bc e5 0f 9d bd
       -0.03733863 0.079919346 -0.011876912 -0.07669047
000020 33 4e c5 3d 6b e3 e1 3d 28 ea 3d bd a2 a4 96 3c
       0.09634056 0.11029705 -0.046365887 0.01838905
000030 5b 01 84 bd d7 28 81 bd 62 1f d6 3d 86 c4 59 bd
       -0.06445571 -0.06306618 0.104552045 -0.053165935
000040 59 45 f8 bd be 5f 4b 3c 5e e4 8f bd 9f 93 da 3d
       -0.12122602 0.012412963 -0.070259795 0.10672688
000050 34 cb 97 ba ef 4b e1 3d c3 97 e5 3d 2a 92 b6 3d
       -0.0011580945 0.11000811 0.11210587 0.08914597
000060 6e 28 e4 3d d0 06 cd bd ef cc d3 3d c6 00 74 bd
       0.11140524 -0.10011065 0.10341822 -0.05957105
000070 9b 6e 6c 3c 92 cf 2c 3d fd 33 c2 3d 59 87 9f 3b
       0.014430667 0.042190142 0.09482572 0.0048684296
000080 9f 88 ed 3c 0a 2a b2 bc 2e fc f5 3c 0d 77 ab 3d
       0.02899581 -0.021748561 0.030027475 0.083723165
000090 50 93 e0 bc 82 4b 5b 3d 8d b4 7d be 04 cd 83 bd
       -0.027413994 0.053538807 -0.24775906 -0.06435588
0000a0 f5 6d 89 3c 63 14 8e bd e5 0e 9b bd 28 92 85 bc
       0.016776064 -0.06937482 -0.075712 -0.016305044
0000b0 a0 60 4b 3d 28 38 ca 3d f3 1f e0 bb da 3b ad bd
       0.049652696 0.09873992 -0.006839746 -0.084586814
0000c0 50 66 bf bd b8 32 7b 3d cf d4 80 bc d0 27 48 3d
       -0.093456864 0.061327666 -0.015726475 0.048866093
0000d0 fa 05 a3 bd b9 f2 8a 3d 97 08 96 3d 43 85 fd 3d
       -0.07960124 0.06784577 0.07325857 0.12378933
0000e0 94 47 c5 3d 16 3a 20 3d 10 76 b3 3d e2 86 e1 bc
       0.09632793 0.039117895 0.08762753 -0.027530137
0000f0 72 ce f0 3d 9c bf 12 bd 1c 84 85 bc 00 27 22 bd
       0.11758126 -0.035827264 -0.016298346 -0.039587975
000100 ab 48 b9 3d b3 a1 1f 3d 15 e4 3d bd 9e f2 41 bd
       0.090470634 0.038972568 -0.046360094 -0.04735052
000110 d8 9e 8e bd b6 48 b1 3c c0 05 2d 3c 9b 25 03 3c
       -0.06963891 0.021641117 0.010560453 0.008004571
000120 6b f1 a5 bd 3c 94 dd 3d 4f 1b 61 bb e0 91 9f bb
       -0.081026874 0.10819289 -0.0034348553 -0.0048696846
000130 01 6c 02 bd ae 72 c6 3d e8 4c ce 3d 26 63 9f bc
       -0.03184128 0.09689842 0.100732625 -0.019456457
000140 d4 f9 bd 3d 43 84 5b bd dd fa 2b bd 6e e4 bc 3d
       0.092761666 -0.05359293 -0.04198729 0.09223257
000150 5c 84 73 3c 33 5b 8c 3c 36 54 2c bd 8d bb 9a bd
       0.0148631 0.01713333 -0.042072497 -0.07555304
000160 07 10 4e bd 5d c5 e7 3b ec c4 06 bd e2 fb 2c 3c
       -0.050308254 0.007073088 -0.032902643 0.0105581
000170 cf d7 af 3d 35 f5 a2 bd df 43 3b 3d 9b d0 b3 3d
       0.08586084 -0.07956926 0.045719024 0.08780023
000180 a1 aa 45 3e b9 62 67 bd b3 79 a5 3d 0e 5c ab bd
       0.19303371 -0.056490634 0.08079853 -0.083671674
000190 2f f5 b8 3d 87 2a ee bc 25 56 ea bb 07 eb 77 3d
       0.0903114 -0.029073013 -0.0071513825 0.060526874
0001a0 6c 95 c3 3d 93 e0 7a bd 09 7d a2 3d 2d d2 a4 3d
       0.09549984 -0.061249327 0.07934005 0.080479
0001b0 89 7a d0 bb 53 11 5b bd 81 8b e2 3d f6 cf b3 3c
       -0.0063622636 -0.05348332 0.110617645 0.02194975
0001c0 70 4b e3 3b 69 6a f3 bc 82 3b f6 3c f9 b0 9b bd
       0.006936483 -0.029713826 0.030057672 -0.07602114
0001d0 09 2b 2f 3d f2 7e c8 3d 57 3f f2 3d 35 a2 c7 bd
       0.04276565 0.09789838 0.11828487 -0.097477354
0001e0 de 2e af bd e6 7c 96 3b 95 50 97 be 51 f5 96 3d
       -0.08553861 0.004592526 -0.29553667 0.07371009
0001f0 02 fe ac 3c 3a 97 05 bd 05 09 c0 bd 67 d8 0b 3d
       0.021117214 -0.032614924 -0.0937672 0.034141924
000200 64 6e c1 bd 49 81 5b bc 20 6c 56 bd db c3 ec 37
       -0.094448835 -0.013397523 -0.05234921 2.8224595e-05
000210 19 55 b1 bd 00 db 97 bd 8f c5 1a 3d f0 5d 3d bd
       -0.08658809 -0.07414818 0.037786063 -0.046232164
000220 2e 79 fb 3c 9b 65 a3 bc 35 10 df 3d 9d e4 88 3d
       0.030697431 -0.01994591 0.10891763 0.066842295
000230 fe 9a 5a 3c 89 6b c8 3d 61 70 24 3c 09 5b fc 3b
       0.013342617 0.09786136 0.010036559 0.007701282
000240 20 4b 94 3d 6f 3c 9a bd dc 8d 03 bc 54 e8 ed 3c
       0.072408915 -0.07531058 -0.008029427 0.029041447
000250 63 51 11 3d 32 4c 31 3d a3 92 c2 bd 76 de e1 3d
       0.035478007 0.043285556 -0.09500625 0.11028759
000260 5d da 3b bb 27 fc 63 3d 7d 6a 14 bd c4 3a 9a bd
       -0.002866409 0.055660393 -0.036234368 -0.0753074
000270 4e 3a 03 3e db 0c cc 3c 61 65 5f 3d db cb ae bd
       0.1281521 0.024908474 0.05454004 -0.08534976
000280 ec 93 96 3d eb f7 39 bc 80 ac b5 3d d7 90 10 3d
       0.073524326 -0.011350612 0.088707924 0.03529438
000290 2a 1e f2 bc da e4 8e bd 5e 45 51 3c 13 78 e3 3c
       -0.029555399 -0.06977244 0.012772886 0.027767217
0002a0 38 45 2a 3d 95 55 28 3c a1 db 5a bd e7 90 98 bd
       0.04156992 0.010274311 -0.05343211 -0.07449513
0002b0 ed 7c d0 3d 4a 34 61 bd 01 06 6e 3d 00 58 9a 3d
       0.10180078 -0.054981507 0.058111195 0.07536316
0002c0 0b 53 44 3d d2 4a 80 bc ec b1 98 bd 49 c0 d8 bb
       0.04793076 -0.015660677 -0.07455811 -0.006614719
0002d0 ef e8 0a 3d 11 fb ce 3d 33 7a 82 3d 35 76 20 bd
       0.03391355 0.10106481 0.06370964 -0.03917523
0002e0 10 45 9e 3d e0 38 36 bd 6d 78 50 ba 8d 92 f2 bc
       0.077280164 -0.044487834 -0.0007952515 -0.029610896
0002f0 23 bc 0d 3d c3 96 9a bd 16 88 ce bd 44 8c 93 bd
       0.03460325 -0.07548287 -0.1008455 -0.07204488
000300 f8 3c fd 3b 14 19 4f bc a5 3a 51 3d 9b f2 f6 3c
       0.0077282153 -0.012640256 0.05108132 0.03014498
000310 d3 3c 12 bc a5 9b 9b bd 40 c2 35 3d e7 81 8e bd
       -0.008925634 -0.07598046 0.044374704 -0.06958371
000320 8e d3 06 bd 81 7f 60 3d 5b 63 25 bc 4f 59 83 bd
       -0.032916598 0.054809097 -0.010094489 -0.06413519
000330 8e 4a 63 bd 40 0d 81 3d 91 ba d8 bd 4b d2 b8 bd
       -0.055491023 0.06301355 -0.1058246 -0.09024485
000340 83 9a d8 bd ff 24 56 bd 97 f2 4f bd 05 a0 c0 bc
       -0.10576346 -0.052281376 -0.05076846 -0.023513803
000350 72 56 aa 3d f7 61 3d 3d 42 ee 8b bd de 98 b0 bd
       0.083172694 0.046236005 -0.068325534 -0.08622907
000360 0d cb af 3c 2d f4 95 bd f9 b4 85 bd 89 e5 ae 3c
       0.021459127 -0.073219635 -0.065286584 0.021349685
000370 ae 59 35 3d 2e 5d 75 bd 9b b7 4d 3d ff ed 71 bd
       0.04427498 -0.059903316 0.050223928 -0.05906486
000380 f8 bf 45 bd a6 1e 68 3d e5 4a 1f bd e2 d5 e9 bc
       -0.04827878 0.056669854 -0.038889784 -0.02854437
000390 70 40 75 3d a2 f5 ec 3b fd 36 8b 3d 05 56 0c 3d
       0.059875906 0.00723143 0.067975976 0.034261722
0003a0 07 cc 48 bd e1 2d cb 3d d7 21 e3 bd 5f ac 18 bd
       -0.0490227 0.0992086 -0.11090439 -0.03727376
0003b0 70 22 2e 3c 98 93 56 3d 03 1c 25 bd ca c0 9a 3d
       0.010628328 0.05238685 -0.040309917 0.07556303
0003c0 e8 f0 cf bd d7 3f 72 3a 2c 0e dc 3d a9 a8 1f bb
       -0.10153371 0.000924108 0.107448906 -0.0024362004
0003d0 c8 6d 3e 3d e3 a5 39 bd 03 6c 37 3d 53 33 80 3d
       0.046491414 -0.045324218 0.044780742 0.06259789
0003e0 b7 cd 9d 3d 70 a2 b6 bd 5b af d0 bd 15 a7 ba 3d
       0.077052526 -0.08917701 -0.101896964 0.091138996
0003f0 c6 ff af bc 3f 77 15 3d 4f 2d 9d ba 91 93 10 bd
       -0.021484267 0.036490675 -0.0011991652 -0.03529698

fc3.bias f4 [5]
000000 61 16 5c 3d 74 0f 70 3c de 66 82 bd d8 3a 1b 3c
       0.05373228 0.014652122 -0.063672766 0.009474479
000010 f6 67 9c 3d
       0.076370165
