src/content/MoodSongs/modelScaleLessLayers-paraphrase-multilingual-MiniLM-L12-v2-0.20735974398798723.pt (torch, 580003 bytes, 11 tensors)

push.0.weight f4 [192, 384]
0.40616786 0.16623762 0.10086544 0.27410975 -0.08244476 0.013734992 -0.49696487 0.36374867
-0.36520055 -1.147027 -0.6676682 0.45283517 -0.8543859 0.44291183 -0.64224476 0.7019877
-1.1603066 0.7956471 -0.443941 -0.24361101 -0.4120403 -0.23930208 0.4133399 -0.6816297
0.06294463 -0.07683539 -0.04914734 0.11049983 -0.16548564 -0.01742698 -0.3860096 -0.6405169
-0.3053373 0.118561216 -0.14786251 -0.27495158 0.52140623 0.22660998 1.2931633 0.30891758
0.056567043 0.20302197 0.3010777 -0.3961185 0.012035983 -0.42518705 0.765002 0.58227754
0.23729119 0.53247136 -0.27633855 0.42097238 -0.77278686 0.18212083 0.1018275 -0.08393287
-0.65357125 0.4891227 -0.11673536 1.1050991 0.1726178 -0.3486065 0.6126134 0.02394505
-0.45482454 0.6820506 0.05726977 -0.07779239 -0.82531476 -0.9104332 0.07692646 0.12483173
0.19328535 0.06766065 -0.7122971 -0.12030439 0.053312555 0.2728289 0.29646912 0.45166793
-0.69045913 -0.574072 -0.5669359 -0.04404944 0.12434205 0.027567383 0.24756779 -0.10339679
-0.64722437 -0.2272171 -0.5686469 -0.8328343 0.4470519 0.17010291 0.30284137 1.1938252
0.43185222 0.82966167 -0.16984893 -0.02430566 -0.11521461 -0.22936995 -0.25491008 -0.4479292
0.18472688 -0.63160384 0.12049184 -0.48140028 0.2828442 -0.72704333 0.45946532 -0.45321235
-0.046909805 0.3678473 -0.15036081 -0.7237374 -0.18829502 -0.14320955 -0.53990227 0.24770953
-0.47251102 0.08170375 -0.6709421 -0.1162868 -0.38724098 0.21777835 -0.5313994 -0.5149584
0.25414172 -0.48901466 -0.12394631 0.56379414 0.10931201 0.6472651 -0.4470958 -0.24682675
-0.7695747 0.61244607 -0.24879989 -0.45728424 0.26829943 0.3758756 -0.0016269484 1.1098063
-0.16621926 -0.3976519 0.15765153 -0.13402222 0.16178335 0.011948451 -0.54259354 -0.4342339
0.5581826 -0.69321597 0.31816182 0.3019735 0.38499865 -0.06427316 0.44625416 -1.0075922
0.24398671 0.31646192 0.4369905 0.3508372 -0.19638547 0.26299334 -0.10122038 -0.013455122
1.0023443 -0.005061841 0.19980346 0.5840394 -0.73716277 -0.68495584 0.122010015 0.661034
0.44660684 -0.3564152 0.006351619 0.793828 0.2394186 0.71376413 -0.13093856 -0.3596725
0.076569185 -0.55955064 0.37257573 -0.45839474 0.07073912 0.28905788 0.051693205 0.7727926
0.18744119 -0.08121335 0.20852074 0.346735 0.19320805 -0.906491 -0.4878593 -0.42961547
0.14155832 -0.013541636 -0.07547657 -0.051687878 0.5121964 0.30274314 0.7997969 -0.23716658
1.2053946 0.25008222 -0.32837346 0.2669545 0.47842595 -0.5161352 -0.65346557 -0.07275646
-0.37212688 -0.6797238 0.325054 -0.3752957 -0.14831282 -0.35203996 0.089328274 0.5732165
-0.1463412 0.26857665 0.73293495 -0.14223124 0.2793371 -0.009441178 -0.28529155 -0.14633322
-1.2339156 0.34117895 0.31353217 0.39750165 -0.77607185 -0.60480595 0.053120434 0.20981307
-0.065068915 -0.6236601 0.3127778 -0.61679095 -0.37150574 0.83499664 0.25548044 -0.2739006
0.496851 -0.0015031579 0.1445297 -0.42537382 0.2292511 0.541364 0.027012123 -0.06417425
00000000: 3cf5 cf3e 323a 2a3e 8a92 ce3d 1d58 8c3e
00000010: ccd8 a8bd bb08 613c 2e72 febe 443d ba3e
00000020: 91fb babe c8d1 92bf 4eec 2abf 03da e73e
00000030: 09b9 5abf 57c5 e23e 276a 24bf 77b5 333f
00000040: ed84 94bf 87af 4b3f 3c4c e3be 2a75 79be
00000050: f2f6 d2be 9b0b 75be 4aa1 d33e 497f 2ebf
00000060: 1de9 803d df5b 9dbd b94e 49bd bc4d e23d
00000070: 1175 29be 07c3 8ebc 0da3 c5be eaf8 23bf
00000080: 2c55 9cbe 39d0 f23d 4569 17be 74c6 8cbe
00000090: e17a 053f 720c 683e 6086 a53f 722a 9e3e
000000a0: d8b2 673d fee4 4f3e db26 9a3e 0bd0 cabe
000000b0: 9232 453c 1eb2 d9be 2cd7 433f 2410 153f
000000c0: 76fc 723e 0b50 083f 3f7c 8dbe b189 d73e
000000d0: 5cd5 45bf e27d 3a3e f08a d03d ffe4 abbd
000000e0: 7250 27bf 4a6e fa3e f312 efbd e373 8d3f
000000f0: b8c2 303e 8d7c b2be 3bd4 1c3f 6928 c43c
00000100: c3de e8be de9a 2e3f b593 6a3d 9e51 9fbd
00000110: d447 53bf 2612 69bf 9f8b 9d3d c7a7 ff3d
00000120: 98ec 453e ab91 8a3d 1a59 36bf 2662 f6bd
00000130: 445e 5a3d 3bb0 8b3e cdca 973e 0541 e73e
00000140: eec1 30bf 62f6 12bf b622 11bf 306d 34bd
00000150: 0ba7 fe3d fed4 e13c 6982 7d3e b2c1 d3bd
00000160: 7fb0 25bf 99ab 68be d892 11bf a134 55bf
00000170: fde3 e43e 752f 2e3e 060e 9b3e 44cf 983f
00000180: bc1b dd3e b564 543f e1ec 2dbe aa1c c7bc
00000190: a3f5 ebbd f5df 6abe 9383 82be fa56 e5be
000001a0: 0b29 3d3e cab0 21bf 6dc4 f63d 197a f6be
000001b0: f4d0 903e 831f 3abf 0a3f eb3e 730b e8be
000001c0: 7f24 40bd 7b56 bc3e 2ff8 19be db46 39bf
000001d0: 69d0 40be 86a5 12be 0937 0abf 91a7 7d3e
000001e0: f7ec f1be 4c54 a73d ddc2 2bbf c627 eebd
000001f0: 7344 c6be 4a01 5f3e cb09 08bf 50d4 03bf
00000200: dd1e 823e 2160 fabe 90d7 fdbd d054 103f
00000210: fade df3d 2ab3 253f bee9 e4be 27c0 7cbe
00000220: d902 45bf 44c9 1c3f 66c5 7ebe 2921 eabe
00000230: 8b5e 893e c472 c03e 543f d5ba 220e 8e3f
00000240: 6235 2abe 0899 cbbe 676f 213e 1f3d 09be
00000250: 89aa 253e 70c3 433c 69e7 0abf e853 debe
00000260: 0ee5 0e3f 9a76 31bf 1be6 a23e 459c 9a3e
00000270: 8b1e c53e a6a1 83bd 6d7b e43e c8f8 80bf
00000280: a7d7 793e 4c07 a23e 38bd df3e efa0 b33e
00000290: 4619 49be 10a7 863e a14c cfbd df72 5cbc
000002a0: d14c 803f cddd a5bb 4799 4c3e 9b83 153f
000002b0: b3b6 3cbf 4459 2fbf 63e0 f93d 8639 293f
000002c0: a7a9 e43e 0e7c b6be 3e21 d03b 5038 4b3f
000002d0: 262a 753e 3fb9 363f c214 06be fe26 b8be
000002e0: 4ed0 9c3d b63e 0fbf 3fc2 be3e b7b2 eabe
000002f0: acdf 903d 65ff 933e 41bc 533d bcd5 453f
00000300: 95f0 3f3e 2f53 a6bd 7686 553e 4087 b13e
00000310: 55d8 453e cb0f 68bf b2c8 f9be 8ff6 dbbe
00000320: aaf4 103e bddd 5dbc 7693 9abd abb6 53bd
00000330: 4e1f 033f 2601 9b3e 7dbf 4c3f ccdb 72be
00000340: 5f4a 9a3f c70a 803e 9120 a8be 43ae 883e
00000350: 3ff4 f43e 7021 04bf 8549 27bf 5701 95bd
00000360: 6a87 bebe 6102 2ebf 7a6d a63e c226 c0be
00000370: 51df 17be 953e b4be bef1 b63d 51be 123f
00000380: 78da 15be e182 893e a0a1 3b3f 11a5 11be
00000390: 4605 8f3e 2caf 1abc bc11 92be 60d8 15be
000003a0: f2f0 9dbf 02af ae3e 4a87 a03e 5685 cb3e
000003b0: a5ac 46bf 90d4 1abf d094 593d 3dd9 563e
000003c0: da42 85bd 30a8 1fbf 6924 a03e 03e6 1dbf
000003d0: 0036 bebe 57c2 553f 55ce 823e b33c 8cbe
000003e0: 4163 fe3e 9c05 c5ba 98ff 133e 99ca d9be
000003f0: cdc0 6a3e d596 0a3f 8748 dd3c ca6d 83bd

push.0.bias f4 [192]
-0.8618774 -0.59191024 -0.95859534 -1.0115249 -0.52544165 -0.37549505 0.08390782 -0.48913416
-0.81193477 -0.93592966 -0.98881674 -0.65946007 -0.13611278 -0.58873814 -1.021619 -0.8416963
-0.9231772 -0.8545687 -0.5954477 -0.6763778 -0.6289751 -0.92162734 -0.9441619 -1.0064754
-0.70871866 -0.8542187 -0.3422827 -0.5583408 -0.56225026 -0.7987548 -0.79234344 -0.4603327
0.26466417 -0.5183317 0.08760449 0.4445958 -0.6882614 -0.405923 -0.5105461 -0.5602139
-0.92803174 -0.8589817 -0.5969036 -0.86340624 -0.90598136 -0.73289764 -0.5940028 -0.94831777
-0.26465023 -0.92564374 -0.8284149 -0.29741347 -1.0506656 -0.5850287 -0.9549541 -0.36957294
-0.10419897 0.45749602 -0.47264642 -0.3608523 -0.6795551 -0.82570505 -0.43945274 -1.0488843
-0.5481409 -0.21746697 -0.97355765 -0.5314223 0.010250537 -0.91782904 -0.7294935 -0.7914049
-0.64693916 -1.1253281 -0.9487317 -0.3206514 -0.11207958 -0.44548652 -0.9605776 -0.9415443
-0.7764074 -0.87120515 -0.29847658 -0.542972 -0.25538668 -0.7523524 -1.0946107 -0.8625709
0.06736493 -0.9280329 -1.0009187 -0.80656546 -0.73095334 -0.7449205 -0.52971923 -1.1180489
-0.23095742 -0.51244164 -1.0282408 -0.18710756 -0.56090397 -0.8929949 -0.89063555 -0.25968322
-0.33523726 -0.5837658 -0.57385707 0.3017028 -0.8472469 -0.43336326 -0.6439745 -0.34598267
-1.0311676 -0.9743768 -0.94822985 -0.74926907 -0.50360286 -0.5096854 -0.31206998 -0.23302458
-0.7490552 -0.53234494 -0.98739034 -0.96777594 -0.39961424 -1.0186532 -0.05391877 -0.86122644
-0.99991506 -0.80223054 -0.87181807 -0.45218515 -0.51439404 -0.25305712 -0.74603504 -0.9877858
-0.9448502 -1.011472 -1.019175 0.19772115 -0.6400028 -0.74734205 -0.828822 -0.9157114
-0.94098437 -0.16934112 -0.8505898 -0.89613086 -0.36602482 -0.5953597 -1.0522758 -0.8073901
-1.0048704 -0.88687927 -0.74253273 -0.48820427 -0.34481522 -0.8011248 -0.03863308 -0.953128
-0.78203267 -0.9536889 -0.6859595 -0.9457666 -1.053245 -0.15969159 -0.7560011 -0.24484614
-1.0003546 -0.35543403 -0.8354458 -1.0367768 -0.85838234 -0.43021888 -0.81273246 -0.87622815
-0.8621134 -0.95490843 -0.82536846 -0.8645878 -0.0717174 -0.24803111 -0.48886895 0.6525469
-0.94001865 -0.038791373 -1.017623 -0.9006061 -1.0266281 -0.4938587 -0.9156272 -0.78310835
00000000: ffa3 5cbf 6e87 17bf 8166 75bf a679 81bf
00000010: 5883 06bf e340 c0be ddd7 ab3d cb6f fabe
00000020: f5da 4fbf 1699 6fbf 1823 7dbf 60d2 28bf
00000030: 2661 0bbe 8bb7 16bf 69c4 82bf 6979 57bf
00000040: 5755 6cbf 04c5 5abf 436f 18bf 1827 2dbf
00000050: 8304 21bf c5ef 6bbf 98b4 71bf 30d4 80bf
00000060: 966e 35bf 14ae 5abf ae3f afbe 6cef 0ebf
00000070: a2ef 0fbf 327b 4cbf 05d7 4abf bab0 ebbe
00000080: 1082 873e 63b1 04bf fc69 b33d 10a2 e33e
00000090: e631 30bf 24d5 cfbe 26b3 02bf 2e6a 0fbf
000000a0: 7d93 6dbf 3ae6 5bbf adce 18bf 3108 5dbf
000000b0: 65ee 67bf 2e9f 3bbf 9110 18bf f4c4 72bf
000000c0: 3c80 87be fdf6 6cbf 0013 54bf 9446 98be
000000d0: 367c 86bf 71c4 15bf df77 74bf aa38 bdbe
000000e0: 4566 d5bd eb3c ea3e b6fe f1be a2c1 b8be
000000f0: 53f7 2dbf 6861 53bf f3ff e0be d741 86bf
00000100: f652 0cbf a9af 5ebe 133b 79bf 4b0b 08bf
00000110: def1 273c d8f6 6abf 16c0 3abf 8399 4abf
00000120: ce9d 25bf c00a 90bf 15e0 72bf 6c2c a4be
00000130: fb89 e5bd cf16 e4be 6ae8 75bf 0c09 71bf
00000140: a3c2 46bf 4d07 5fbf ecd1 98be 3700 0bbf
00000150: 0bc2 82be 2b9a 40bf 341c 8cbf 72d1 5cbf
00000160: a0f6 893d 9093 6dbf 1b1e 80bf 137b 4ebf
00000170: c21f 3bbf 1cb3 3ebf ae9b 07bf 3a1c 8fbf
00000180: 1a80 6cbe 602f 03bf 659d 83bf 2099 3fbe
00000190: 6797 0fbf 509b 64bf b100 64bf 33f5 84be
000001a0: 38a4 abbe ad71 15bf 4ce8 12bf ca78 9a3e
000001b0: 2ce5 58bf cae1 ddbe 83db 24bf a424 b1be
000001c0: 4dfd 83bf c270 79bf 31bf 72bf 19d0 3fbf
000001d0: 1eec 00bf be7a 02bf a3c7 9fbe ff9d 6ebe
000001e0: 15c2 3fbf c247 08bf 9dc5 7cbf 2ac0 77bf
000001f0: 3d9a ccbe 3a63 82bf eed9 5cbd 5679 5cbf
00000200: 6ffa 7fbf fb5e 4dbf 782f 5fbf d084 e7be
00000210: 54af 03bf b490 81be 27fc 3ebf 88df 7cbf
00000220: b4e1 71bf ea77 81bf 5474 82bf 6a77 4a3e
00000230: 39d7 23bf cf51 3fbf ae2d 54bf 106c 6abf
00000240: 5ae4 70bf c267 2dbe 41c0 59bf d568 65bf
00000250: 9b67 bbbe 7e69 18bf f9b0 86bf 1eb1 4ebf
00000260: 989f 80bf 850a 63bf a016 3ebf e9f5 f9be
00000270: 9f8b b0be 8416 4dbf b83d 1ebd 3200 74bf
00000280: 4b33 48bf f524 74bf 0b9b 2fbf c31d 72bf
00000290: bbd0 86bf 3186 23be 4a89 41bf f2b8 7abe
000002a0: 9f0b 80bf 73fb b5be c7df 55bf 1ab5 84bf
000002b0: f2be 5bbf a645 dcbe 3c0f 50bf 7d50 60bf
000002c0: 77b3 5cbf e174 74bf 594b 53bf a055 5dbf
000002d0: 92e0 92bd defb 7dbe 084d fabe 500d 273f
000002e0: 10a5 70bf b4e3 1ebd 7841 82bf 1f8e 66bf
000002f0: 8d68 83bf 0cdb fcbe 8b66 6abf ca79 48bf

push.2.weight f4 [192, 192]
-0.32609662 0.1046787 -0.1683578 -0.0019405091 -0.592282 -0.46245015 0.3977122 -0.076520465
-0.49666846 -0.08566152 -0.3692804 -0.2760679 0.25828996 0.18928164 -0.17389734 0.028058534
0.009292646 -0.3843115 0.23793727 0.13125524 -0.30620846 -0.09763675 -0.46010143 0.35236645
-0.29916364 -0.22809844 0.0443162 -0.059839558 0.18054195 0.04474247 -0.5797226 0.4552067
-0.026502598 0.20487031 -0.012562599 0.39281407 -0.303655 -0.51060575 -0.35695106 -0.012630075
-0.24840668 -0.3018904 0.26635242 -0.589774 -0.0011874395 -0.08739755 0.8437906 -0.18916585
0.34637845 -0.19401443 0.07042778 -0.2167322 -0.12198219 -0.13059428 -0.09534861 0.2450624
0.1751456 0.29754937 0.01855285 0.07399782 -0.24153194 -0.34266758 -0.32464406 -0.24416992
-0.25347131 0.057567738 -0.3896428 -0.43639624 -0.6087862 -0.07477923 -0.17922112 -0.09637571
0.33098832 -0.48912075 -0.218843 0.3121802 0.6121171 0.2750833 -0.19839808 0.028532987
-0.179131 0.073386915 0.056509066 0.5143282 -0.70008576 -0.1822223 -0.078401096 -0.014068801
0.44904208 -0.321186 -0.03434406 0.049209397 -0.26327905 -0.3652333 -0.29539576 -0.17773001
0.27271417 0.2233099 -0.14806637 0.5223148 0.21645938 -0.20150067 -0.3165368 0.18442577
-0.5298337 -0.3863326 -0.30557382 0.5784581 -0.69977933 -0.62600887 -0.04278805 -0.20088808
-0.1338902 -0.4158319 -0.33340162 -1.0655069 0.45697778 0.124764755 0.35209945 -0.5043051
-0.14732583 0.27752712 -0.081794955 0.15084596 0.0010522864 -0.07004236 0.06077279 -0.14644553
-0.2823397 0.22123238 -0.63543797 -0.38220975 0.008475096 -0.2627266 -0.5747256 -0.23811752
-0.041832667 -0.32083905 -0.22914763 0.34800375 -0.1977463 -0.11264377 -0.5108236 -0.34980154
-0.3095748 0.62750715 -0.414765 -0.17512356 0.33903703 0.25117886 -0.09943879 0.0365365
-0.25840104 -0.46609905 -0.1496446 0.16844873 -0.25160706 -0.40907538 -0.8346755 0.010361384
-0.013170365 -0.2637656 0.02373246 -0.37372938 0.04125037 -0.052320316 0.119052924 -0.40392613
0.12530282 0.43204057 -0.04801028 -0.24931526 -0.08050414 0.09288427 -0.0039648535 -0.35284534
-0.17740253 -0.27951762 -0.26329955 -0.3032155 -0.15531628 -0.08362099 -0.86769456 0.17596276
-0.32260823 0.29705438 -0.037423022 -0.3855686 -0.31660455 0.0044303746 -0.26314685 -0.20917101
-0.24222063 0.6418159 0.29102904 -0.080419235 -0.40432033 -1.0273159 1.2715075 0.054882005
-0.3621081 0.063516624 -0.64037454 -0.36681402 0.017511766 0.27448854 0.05827448 -0.017373452
0.1340701 -0.47028837 0.39576578 0.12737338 -0.27763963 0.04180071 -0.2342222 0.52824295
-0.10197085 0.2232921 0.34803563 -0.15184043 -0.21610273 0.093188345 -0.5067629 0.4359759
0.37122306 -0.31920776 0.18817545 0.82291377 -0.4508138 -0.47451457 -0.7565293 -0.40997678
0.022561425 -0.20407179 0.0401863 -0.5299539 0.04274709 -0.32142824 0.5360078 -0.07639167
1.1907619 -0.025074616 -0.004013045 0.62874895 -0.025448281 -0.1819593 0.3087705 0.76588833
0.8865815 0.7064325 -0.7835773 -0.4514864 -0.19653182 -0.33640602 -0.46195045 -0.2028291
00000000: 23f6 a6be c961 d63d fd65 2cbe ae58 feba
00000010: cb9f 17bf 44c6 ecbe efa0 cb3e c3b6 9cbd
00000020: 544b febe 4f6f afbd 5212 bdbe c658 8dbe
00000030: 953e 843e 0cd3 413e 2512 32be 03db e53c
00000040: 2f40 183c 7ac4 c4be d4a5 733e c667 063e
00000050: 5bc7 9cbe c7f5 c7bd 6a92 ebbe 6069 b43e
00000060: fa2b 99be a392 69be e784 353d 531a 75bd
00000070: fddf 383e e143 373d b368 14bf da10 e93e
00000080: fa1b d9bc 86c9 513e 5cd3 4dbc ed1e c93e
00000090: ab78 9bbe 0fb7 02bf 4ac2 b6be 60ee 4ebc
000000a0: 525e 7ebe 6191 9abe 585f 883e 6efb 16bf
000000b0: dca3 9bba 7dfd b2bd a902 583f b1b4 41be
000000c0: 8458 b13e b8ab 46be 713c 903d 0cef 5dbe
000000d0: ccd1 f9bd 82ba 05be 2246 c3bd a3f1 7a3e
000000e0: 5e59 333e 6458 983e 25fc 973c 2b8c 973d
000000f0: 2654 77be 2072 afbe bf37 a6be ae07 7abe
00000100: fec6 81be 26cc 6b3d 437f c7be 546f dfbe
00000110: 6ad9 1bbf da25 99bd be85 37be a160 c5bd
00000120: 4d77 a93e 096e fabe 6118 60be 15d6 9f3e
00000130: b5b3 1c3f b8d7 8c3e de28 4bbe 03be e93c
00000140: 1e6e 37be e14b 963d 0d76 673d 03ab 033f
00000150: d238 33bf 7c98 3abe c190 a0bd d480 66bc
00000160: d8e8 e53e 7e72 a4be 5bac 0cbd cb8f 493d
00000170: 83cc 86be dcff babe 1d3e 97be dbfe 35be
00000180: 31a1 8b3e 5aab 643e b69e 17be 6cb6 053f
00000190: 87a7 5d3e 3156 4ebe 1d11 a2be 1cda 3c3e
000001a0: 2ea3 07bf 63cd c5be 2c74 9cbe d415 143f
000001b0: bd24 33bf 1e42 20bf 8642 2fbd 9bb5 4dbe
000001c0: 831a 09be ebe7 d4be 9eb3 aabe 8862 88bf
000001d0: fef8 e93e aa84 ff3d 6146 b43e 241a 01bf
000001e0: 95dc 16be 0918 8e3e 1d84 a7bd 5d77 1a3e
000001f0: dfec 893a 5e72 8fbd e4ec 783d d1f5 15be
00000200: d48e 90be be8a 623e 10ac 22bf ffb0 c3be
00000210: 21db 0a3c 1a84 86be 3821 13bf 14d5 73be
00000220: bb58 2bbd 0445 a4be ada5 6abe 8c2d b23e
00000230: 027e 4abe c7b1 e6bd 56c5 02bf 3019 b3be
00000240: 9780 9ebe 4fa4 203f 145c d4be 9753 33be
00000250: 4396 ad3e 849a 803e 90a6 cbbd 4ca7 153d
00000260: 244d 84be 89a4 eebe 6f3c 19be d37d 2c3e
00000270: a4d2 80be 5472 d1be 4bad 55bf cbc2 293c
00000280: 84c8 57bc 490c 87be 936a c23c 7559 bfbe
00000290: 26f6 283d d44d 56bd 05d2 f33d 68cf cebe
000002a0: 624f 003e 6c34 dd3e 6da6 44bd 804c 7fbe
000002b0: 5bdf a4bd 1c3a be3d 9aeb 81bb 25a8 b4be
000002c0: 02a9 35be ef1c 8fbe 33cf 86be 103f 9bbe
000002d0: 3b0b 1fbe 7b41 abbd 3b21 5ebf 952f 343e
000002e0: e82c a5be 8317 983e e248 19bd 3f69 c5be
000002f0: fe19 a2be ad2c 913b 2fbb 86be ed30 56be
00000300: af08 78be 0c4e 243f c201 953e d7b2 a4bd
00000310: 1303 cfbe 167f 83bf c2c0 a23f f4cb 603d
00000320: 3c66 b9be 0115 823d 96ef 23bf 0ccf bbbe
00000330: d674 8f3c c389 8c3e 39b1 6e3d c552 8ebc
00000340: ac49 093e a3c9 f0be d0a1 ca3e 2b6e 023e
00000350: c826 8ebe 3937 2b3d f2d7 6fbe ee3a 073f
00000360: 18d6 d0bd afa6 643e ba31 b23e 0f7c 1bbe
00000370: 094a 5dbe 88d9 be3d 37bb 01bf 3c38 df3e
00000380: f310 be3e 336f a3be 11b1 403e 7aaa 523f
00000390: 11d1 e6be 93f3 f2be e7ab 41bf 7ae8 d1be
000003a0: bdd2 b83c 32f8 50be 649a 243d 0fab 07bf
000003b0: 9317 2f3d 3e92 a4be cf37 093f 3c73 9cbd
000003c0: e36a 983f 4869 cdbc dd7f 83bb b1f5 203f
000003d0: ea78 d0bc 8a53 3abe 2b17 9e3e 4211 443f
000003e0: 01f7 623f c3d8 343f 8698 48bf 3a29 e7be
000003f0: a33f 49be 693d acbe c584 ecbe 6eb2 4fbe

push.2.bias f4 [192]
0.29346722 0.21243227 -0.52572274 -0.38371232 0.23732655 0.23062748 -0.029634139 -0.11102344
0.2034236 0.0072674085 0.216727 -0.1439882 0.37699226 -0.3316793 0.15468487 -0.017181264
0.034815717 -0.3982837 -0.19065154 -0.13065116 -0.004026361 0.26390627 0.15800504 0.25553462
0.17178892 0.1344041 0.063671246 -0.14486448 -0.121346846 -0.41039106 -0.30230474 -0.36016485
0.09107701 0.011450115 -0.08924184 -0.33377883 -0.19171502 -0.110083066 -0.06399132 -0.031556025
0.18135168 -0.36110544 0.25896314 0.14726861 0.09242019 0.15736005 0.16770165 -0.22544463
-0.048581164 -0.19024077 -0.04929572 0.115089685 0.21737397 -0.28408858 -0.14119771 0.23799981
0.01958122 0.18009369 0.0904584 0.010113983 -0.24224058 0.15243833 -0.2973692 0.13800868
-0.059753526 -0.5222178 0.0368309 0.2063776 0.018831588 -0.41614926 0.03620082 -0.026561715
0.1582771 -0.16704437 -0.076340996 -0.05946357 -0.51125455 0.107732564 0.3257532 0.08698713
-0.17535141 0.019946517 -0.08492723 -0.1650431 -0.45141622 -0.18808798 -0.086872205 -0.21067071
0.14966445 0.14776286 0.13489185 -0.19377956 0.05452504 -0.16725138 -0.037009142 0.09649269
0.33661774 0.20323002 -0.076616615 -0.19926485 -0.55594164 0.11340903 -0.0798327 -0.6389156
-0.09840535 0.20453998 0.16178401 0.17480324 -0.29465786 0.0868141 0.03243012 -0.11981816
-0.040908158 -0.055346992 -0.06881193 -0.2932144 -0.09414806 0.036074206 -0.16375369 -0.072806545
-0.15495412 0.32063204 0.09099316 -0.08105593 -0.09229323 0.18319625 0.20354481 -0.5308485
0.028090948 -0.06602329 -0.14921366 -0.16322787 0.37631112 -0.12869608 0.025495501 0.031103928
0.09722157 -0.08105036 -0.15186042 0.011715825 -0.2569231 0.14058799 0.009374757 -0.013293274
-0.04041546 -0.12367032 0.1783728 0.15598917 -0.060741108 0.016495533 0.15844037 -0.028184297
-0.11703968 0.19160852 -0.30930978 -0.07592524 0.14660022 0.013204152 0.009374534 0.036196243
0.03364322 0.117706604 0.23799239 -0.12777989 0.21595916 0.048110254 0.122010715 -0.11112419
0.012538048 0.28191048 -0.023360593 -0.16417071 -0.049470082 -0.47142074 0.14457439 -0.2659381
-0.16913588 -0.01001093 -0.024551567 -0.31571606 0.05869513 -0.19381139 -0.33920634 -0.28680548
-0.35552004 0.4682202 0.05252735 0.09516232 0.26528442 -0.19804479 0.22885594 0.008923019
00000000: 5641 963e d887 593e c495 06bf f175 c4be
00000010: bb05 733e 9c29 6c3e 4bc3 f2bc 4260 e3bd
00000020: 474e 503e 7123 ee3b afed 5d3e a571 13be
00000030: 2105 c13e dfd1 a9be b665 1e3e b9bf 8cbc
00000040: ed9a 0e3d d7eb cbbe 283a 43be 6bc9 05be
00000050: 90ef 83bb b91e 873e 13cc 213e 6fd5 823e
00000060: 6fe9 2f3e 3aa1 093e 1266 823d 5b57 14be
00000070: b284 f8bd c71e d2be b0c7 9abe 8767 b8be
00000080: 9586 ba3d 4399 3b3c 6dc4 b6bd 0fe5 aabe
00000090: f150 44be 3b73 e1bd e20d 83bd e440 01bd
000000a0: 41b4 393e d0e2 b8be d196 843e 95cd 163e
000000b0: cc46 bd3d fe22 213e fbb9 2b3e f5da 66be
000000c0: 0bfd 46bd 7ace 42be 4fea 49bd 24b4 eb3d
000000d0: 4897 5e3e 0f74 91be 2296 10be 39b6 733e
000000e0: cb68 a03c 7b6a 383e 4142 b93d 1fb5 253c
000000f0: ea0d 78be cb18 1c3e c740 98be 2652 0d3e
00000100: 1dc0 74bd 11b0 05bf ffdb 163d a654 533e
00000110: b444 9a3c 8411 d5be 5047 143d f497 d9bc
00000120: 6413 223e ae0d 2bbe ab58 9cbd 1390 73bd
00000130: 94e1 02bf e4a2 dc3d 20c9 a63e 4f26 b23d
00000140: 528f 33be e166 a33c 54ee adbd 0f01 29be
00000150: 0720 e7be 239a 40be 0eea b1bd 10ba 57be
00000160: a341 193e 264f 173e 1721 0a3e 266e 46be
00000170: a655 5f3d f243 2bbe e696 17bd f69d c53d
00000180: 2959 ac3e 881b 503e 2ce9 9cbd 160c 4cbe
00000190: 3152 0ebf fe42 e83d 547f a3bd f98f 23bf
000001a0: bf88 c9bd ee72 513e b5aa 253e 9fff 323e
000001b0: 65dd 96be 97cb b13d 72d5 043d 3963 f5bd
000001c0: 508f 27bd 87b3 62bd 45ed 8cbd 3320 96be
000001d0: b3d0 c0bd 8cc2 133d 0caf 27be 991b 95bd
000001e0: 4bac 1ebe e229 a43e 9f5a ba3d a700 a6bd
000001f0: 3c04 bdbd cc97 3b3e 0d6e 503e b0e5 07bf
00000200: fd1e e63c 3837 87bd 77cb 18be 3525 27be
00000210: daab c03e e8c8 03be f1db d03c aacd fe3c
00000220: 1a1c c73d bbfd a5bd 4c81 1bbe bbf3 3f3c
00000230: 6d8b 83be 4cf6 0f3e 9598 193c 08cc 59bc
00000240: ae8a 25bd dd46 fdbd 5ca7 363e a0bb 1f3e
00000250: abcb 78bd a421 873c 313e 223e c1e2 e6bc
00000260: 80b2 efbd 0635 443e da5d 9ebe b17e 9bbd
00000270: 5e1e 163e 3a56 583c a597 193c 8342 143d
00000280: 79cd 093d 2910 f13d 47b4 733e bbd8 02be
00000290: 6624 5d3e 420f 453d c1e0 f93d 1495 e3bd
000002a0: 636c 4d3c 9256 903e b75e bfbc 5e1c 28be
000002b0: 24a1 4abd 0f5e f1be 4f0b 143e 0a29 88be
000002c0: f531 2dbe e204 24bc 5e20 c9bc 89a5 a1be
000002d0: 4e6a 703d 7e76 46be 74ac adbe 2bd8 92be
000002e0: b906 b6be 8fba ef3e eb26 573d 76e4 c23d
000002f0: 5cd3 873e 41cc 4abe 3659 6a3e db31 123c

push.5.weight f4 [96, 192]
-0.12870702 0.01266561 -0.17774804 -0.2958603 -0.21771635 -0.054740965 -0.29050872 -0.34264824
-0.29814428 -0.2669105 0.11757066 -0.28740233 0.00054132746 -0.36810026 -0.18379414 -0.31898928
-0.0947217 -0.27641556 -0.25613418 -0.2658155 -0.2981609 0.06889182 -0.09957274 -0.17984529
0.00026512047 -0.19902013 -0.14224163 -0.3183162 -0.15863273 -0.16983567 -0.25235736 -0.31887147
-0.051355764 -0.101707935 0.020665735 -0.10550225 -0.015253287 -0.30749345 -0.16135685 -0.19652636
-0.12388177 -0.17531106 0.21121347 0.076879635 -0.10128937 -0.15387434 -0.14916332 -0.27804965
-0.14731929 -0.25406146 -0.33859736 -0.18650377 0.09271616 -0.23619474 -0.35858166 0.04079025
-0.26386693 -0.13694337 -0.32817 -0.20571972 -0.296847 -0.12665154 -0.22905698 0.01831962
-0.14249137 -0.2160951 -0.19921046 -0.1252926 -0.26671395 -0.23556666 -0.35062495 -0.19468524
-0.22005853 -0.11610464 -0.27451813 -0.27385888 -0.12951188 -0.25965264 0.030638753 -0.23538953
-0.29926485 -0.035609722 -0.34602246 -0.16056255 0.5073103 -0.4143397 -0.29740873 -0.27669495
0.21202059 -0.12591973 0.021636136 -0.17159066 -0.23923291 -0.28575215 -0.30316335 -0.28202412
0.12935953 -0.26924643 -0.2573089 -0.30283806 -0.31511945 -0.12906857 -0.37581396 -0.10879264
-0.20329674 -0.22754645 -0.2423093 -0.084357075 -0.25753507 -0.2849233 -0.30907074 -0.3186178
-0.44517872 -0.38048702 -0.3549296 -0.10246143 -0.22371402 -0.03933141 -0.35511482 -0.35813564
-0.28963298 -0.10630436 -0.2183541 -0.26337945 -0.38960865 -0.23465596 -0.31749353 -0.20205489
-0.37928757 -0.2856279 -0.28857392 -0.26268354 0.025729245 -0.27409762 -0.20982876 0.07615182
-0.12052996 -0.32301036 -0.3132582 0.019982822 -0.28189448 0.024439212 -0.26184198 -0.27449486
-0.27459952 -0.3570201 -0.29192284 -0.001116834 -0.35871542 -0.2989315 -0.23747708 -0.2606231
-0.077749215 0.0013668343 -0.2807723 -0.3402224 -0.028784906 -0.29211414 -0.19568443 -0.14826703
-0.11792789 -0.15554892 0.04067189 -0.3733116 -0.30379897 -0.17882282 -0.06386995 -0.30995873
-0.24451043 -0.18279158 -0.38797033 -0.40347034 -0.20588599 -0.33770207 -0.09935684 -0.23816183
-0.23302187 -0.24886772 -0.10002835 -0.2989481 -0.14863957 -0.27238253 -0.38751805 -0.25125235
-0.19996433 -0.0045960094 -0.33816037 -0.03932267 0.07040649 -0.26014405 -0.22477251 -0.16625553
-0.080054 0.051146407 0.46965617 0.21795885 -0.13538402 -0.13961482 0.073447235 0.13625994
-0.034492534 0.10021037 -0.06367344 0.28100035 -0.14664276 0.2931078 0.1007657 0.16152759
0.056923877 0.24269514 0.013511447 0.25021735 0.19208305 -0.13583557 0.048107296 0.07925478
-0.12333238 -0.028288504 -0.1363001 0.2062887 0.030736327 0.25870273 0.37074903 0.10474306
0.10617995 0.059805576 -0.024868067 0.4149796 0.08581936 0.17299567 0.03704551 0.15871112
-0.12758924 0.22277206 -0.21013093 -0.05746023 0.029024437 -0.02910719 0.050940942 0.30406708
0.038432248 0.235674 0.30578238 0.018955277 -0.10378645 0.17372435 0.1682572 -0.09196347
0.119142674 0.027729979 0.05176721 0.24873026 0.12201434 0.12435368 0.11650568 0.003537805
00000000: c6cb 03be 6b83 4f3c 9503 36be 007b 97be
00000010: 09f1 5ebe 1038 60bd 8fbd 94be 976f afbe
00000020: 5ea6 98be 7ea8 88be e3c8 f03d 6626 93be
00000030: dfe7 0d3a a377 bcbe 8834 3cbe 9052 a3be
00000040: 73fd c1bd 5786 8dbe 0524 83be f818 88be
00000050: 8ca8 98be 2817 8d3d cbec cbbd 5d29 38be
00000060: deff 8a39 efcb 4bbe caa7 11be 57fa a2be
00000070: 9e70 22be 67e9 2dbe fc34 81be 1f43 a3be
00000080: 6c5a 52bd 404c d0bd 304b a93c 9011 d8bd
00000090: ece8 79bc c86f 9dbe bb3a 25be 353e 49be
000000a0: bab5 fdbd be84 33be 5848 583e 1273 9d3d
000000b0: cd70 cfbd 3c91 1dbe 45be 18be 865c 8ebe
000000c0: deda 16be 5814 82be a25c adbe d8fa 3ebe
000000d0: f8e1 bd3d 09dd 71be 0498 b7be ad13 273d
000000e0: 9119 87be e23a 0cbe e605 a8be 31a8 52be
000000f0: 54fc 97be f1b0 01be ea8d 6abe 0713 963c
00000100: 42e9 11be 0948 5dbe d4fd 4bbe b44c 00be
00000110: bb8e 88be 6338 71be 1d85 b3be 915b 47be
00000120: 0657 61be 45c8 edbd a48d 8cbe 3b37 8cbe
00000130: c39e 04be 31f1 84be 1ffe fa3c f409 71be
00000140: 3e39 99be 80db 11bd db29 b1be 826a 24be
00000150: 16df 013f 5524 d4be f545 98be f6aa 8dbe
00000160: ed1b 593e 1af1 00be 443e b13c 76b5 2fbe
00000170: 79f9 74be 1b4e 92be 3a38 9bbe 7765 90be
00000180: d376 043e abda 89be febd 83be 970d 9bbe
00000190: 5657 a1be 8d2a 04be b06a c0be adce debd
000001a0: 052d 50be f001 69be ee1f 78be 67c3 acbd
000001b0: a3db 83be 77e1 91be 853e 9ebe df21 a3be
000001c0: 77ee e3be 32cf c2be 55b9 b5be 4cd7 d1bd
000001d0: 4a15 65be f919 21bd 9cd1 b5be 8e5d b7be
000001e0: c64a 94be 1ab6 d9bd 3898 5fbe acd9 86be
000001f0: c97a c7be a749 70be 838e a2be 7ae7 4ebe
00000200: fb31 c2be d23d 92be f6bf 93be 757e 86be
00000210: 23c6 d23c 8656 8cbe 5add 56be 7cf5 9b3d
00000220: 69d8 f6bd 9d61 a5be 6163 a0be 04b3 a33c
00000230: 7954 90be be34 c83c 2710 86be 978a 8cbe
00000240: 4f98 8cbe 57cb b6be e976 95be bb62 92ba
00000250: 8ca9 b7be 8d0d 99be 312d 73be 6470 85be
00000260: fb3a 9fbd 5927 b33a 63c1 8fbe a131 aebe
00000270: 53ce ebbc fc8f 95be 8061 48be 50d3 17be
00000280: 2d84 f1bd 3748 1fbe 9197 263d b322 bfbe
00000290: 8a8b 9bbe 541d 37be 40ce 82bd e9b2 9ebe
000002a0: f160 7abe b72d 3bbe 0ca4 c6be aa93 cebe
000002b0: c7d3 52be 49e7 acbe 997b cbbd b2e0 73be
000002c0: 499d 6ebe 2ed7 7ebe aadb ccbd ba0f 99be
000002d0: f934 18be b975 8bbe c468 c6be 26a4 80be
000002e0: 73c3 4cbe 1f9a 96bb 5b23 adbe cf10 21bd
000002f0: 4731 903d 9a31 85be c42a 66be e43e 2abe
00000300: 5af3 a3bd e57e 513d c676 f03e 9b30 5f3e
00000310: 1ca2 0abe 30f7 0ebe 816b 963d ba87 0b3e
00000320: 0b48 0dbd 183b cd3d 3867 82bd 47df 8f3e
00000330: 8529 16be 3a12 963e 3f5e ce3d 7d67 253e
00000340: 0329 693d 1385 783e 1e5f 5d3c 7d1c 803e
00000350: 6bb1 443e 7b18 0bbe 280c 453d 5550 a23d
00000360: b095 fcbd 4bbd e7bc 4192 0bbe 583d 533e
00000370: c0ca fb3c af74 843e d1d2 bd3e 8883 d63d
00000380: e074 d93d b1f6 743d 1eb8 cbbc 3578 d43e
00000390: 10c2 af3d c725 313e 08bd 173d 2b85 223e
000003a0: c1a6 02be 5c1e 643e 902c 57be 6b5b 6bbd
000003b0: a8c4 ed3c 3472 eebc 73a7 503d aeae 9b3e
000003c0: 226b 1d3d 8654 713e 828f 9c3e 1948 9b3c
000003d0: fe8d d4bd cce4 313e 9e4b 2c3e 5857 bcbd
000003e0: 1301 f43d fb29 e33c db09 543d 25b3 7e3e
000003f0: a7e2 f93d 24ad fe3d 889a ee3d 85da 673b

push.5.bias f4 [96]
0.29020748 -0.05355752 0.08545712 0.11835883 -0.042698085 0.043840952 0.079967126 -0.065801755
0.015858028 0.18632613 -0.009563939 0.099267334 0.036798656 0.09359104 0.013078786 0.047803417
-0.0065657357 -0.039250866 0.20968638 0.062461525 0.117135644 0.06699538 -0.062130116 -0.019919716
0.017895255 0.0003376722 -0.10811072 0.018073631 -0.048181273 0.2520594 0.24076866 0.2915383
0.27255952 0.09419612 0.15022112 -0.018884227 0.38266048 0.24623932 -0.11973276 0.44890797
-0.029558692 0.11731952 0.092333086 0.17026311 0.042029437 0.031422194 0.12817155 -0.14071666
-0.005236371 -0.008170851 -0.010392061 0.108758286 -0.07486225 0.0034771238 0.12650196 0.28264716
0.18319678 -0.12792209 0.3894724 0.19563955 0.14332859 0.025644222 0.04516058 0.1488772
0.02192812 0.09378273 0.039387073 0.19462772 0.05013144 0.074044995 -0.061995555 0.018992038
-0.034246664 0.016323319 0.2008398 0.020471137 0.20722932 0.13140012 0.2282149 0.1727657
0.18824245 0.09140724 0.005292571 0.06245693 0.12390276 0.008080353 -0.017366674 -0.21417607
-0.047098827 0.04231201 -0.070584126 0.047048375 0.009567765 -0.08690846 0.043676015 0.17922078
00000000: 1396 943e 215f 5bbd 2404 af3d 1d66 f23d
00000010: 30e4 2ebd 9292 333d cec5 a33d 12c3 86bd
00000020: b2e8 813c 47cc 3e3e 11b2 1cbc ac4c cb3d
00000030: 30ba 163d a9ac bf3d 6848 563c 84cd 433d
00000040: 6225 d7bb 84c5 20bd 07b8 563e a8d7 7f3d
00000050: d0e4 ef3d e034 893d 267c 7ebd ac2e a3bc
00000060: 1299 923c 9809 b139 2769 ddbd 270f 943c
00000070: ba59 45bd ee0d 813e 0f8c 763e 8244 953e
00000080: ec8c 8b3e e5e9 c03d 91d3 193e 18b3 9abc
00000090: 13ec c33e 2926 7c3e 7336 f5bd 44d7 e53e
000000a0: 1225 f2bc 3745 f03d 2119 bd3d 7459 2e3e
000000b0: 0f27 2c3d 8fb4 003d 673f 033e 0718 10be
000000c0: dd95 abbb 08df 05bc 7743 2abc aabc de3d
000000d0: 6151 99bd 75e0 633b bb89 013e 21b7 903e
000000e0: f097 3b3e 02fe 02be ed68 c73e bc55 483e
000000f0: bbc4 123e d513 d23c 4dfa 383d 4473 183e
00000100: 9aa2 b33c 2911 c03d 5754 213d 7d4c 473e
00000110: a056 4d3d e7a4 973d 0def 7dbd 3195 9b3c
00000120: 3b46 0cbd 7bb8 853c f3a8 4d3e 16b3 a73c
00000130: ec33 543e c18d 063e 2bb1 693e 7ee9 303e
00000140: a1c2 403e b833 bb3d 4e6d ad3b d6d2 7f3d
00000150: bbc0 fd3d 7563 043c 8e44 8ebc f950 5bbe
00000160: b3ea 40bd 5c4f 2d3d 698e 90bd ccb5 403d
00000170: 1dc2 1c3c 10fd b1bd 9fe5 323d a785 373e

push.7.weight f4 [96, 96]
-0.16697575 -0.20461242 -0.13866058 -0.18121019 -0.11899884 -0.08822566 -0.20724748 -0.19011037
-0.16448341 -0.18422495 -0.13694696 -0.083629556 -0.19671077 -0.17122005 -0.18195543 -0.15825802
-0.14268836 -0.112528294 -0.2021484 -0.08047239 -0.21861513 -0.088039175 -0.050289206 -0.066900626
-0.12608247 -0.15385929 -0.093920216 -0.19105545 -0.1156006 -0.19190332 -0.18123153 -0.124779515
-0.16324267 -0.12786269 -0.20338924 -0.19825326 -0.22849712 -0.21781287 -0.2864483 -0.1455129
-0.2030835 -0.16819946 -0.14022616 -0.16376255 -0.11490071 -0.09904572 -0.10509686 -0.15665999
-0.10064403 -0.16155954 -0.2739409 -0.15588172 -0.05107896 -0.16376814 -0.06954234 -0.12052373
-0.1883687 -0.2532006 -0.17081866 -0.17890362 -0.2387973 -0.1578707 -0.15356104 -0.21723194
-0.18633644 -0.120481536 -0.15388486 -0.23201951 -0.15945764 -0.14853197 -0.14847009 -0.1600228
-0.2692985 -0.13992317 -0.2069134 -0.15345152 -0.2223269 -0.108557016 -0.17508422 -0.10597911
-0.0941236 -0.08996222 -0.12424813 -0.1122061 -0.1562742 -0.14078836 -0.25781626 -0.24843779
-0.13940021 -0.11784749 -0.17705847 -0.20087005 -0.15036307 -0.19487925 -0.07320095 -0.13651922
-0.1704871 -0.24979061 -0.12547746 -0.08607804 -0.212432 -0.16502428 -0.09837198 -0.20041142
-0.16617727 -0.21063328 -0.12609735 -0.1321861 -0.1434342 -0.1698736 -0.15139511 -0.13827789
-0.0950098 -0.13837603 -0.10296356 -0.09211525 -0.13235058 -0.10053469 -0.11346463 -0.089193456
-0.1179484 -0.111167364 -0.173774 -0.18209445 -0.10321197 -0.23944849 -0.17458044 -0.23621131
-0.14466226 -0.17043675 -0.100384146 -0.124836795 -0.25674835 -0.13520312 -0.24903798 -0.2053063
-0.26327804 -0.1602712 -0.11806905 -0.2007636 -0.19581139 -0.12587492 -0.13753334 -0.11249076
-0.19360076 -0.25010425 -0.2781952 -0.19883816 -0.09105603 -0.085386105 -0.12002897 -0.1983787
-0.092006855 -0.18413778 -0.17158209 -0.12294259 -0.19551614 -0.15880875 -0.1659295 -0.15747029
-0.06725137 -0.18402608 -0.1173007 -0.19242166 -0.19043058 -0.14886408 -0.14724384 -0.095858425
-0.27563518 -0.20305274 -0.10889635 -0.09627616 -0.192033 -0.17963871 -0.11282662 -0.14279926
-0.17056641 -0.17380719 -0.09175117 -0.10468731 -0.13170952 -0.15189287 -0.16804346 -0.23635966
-0.04705149 -0.08671906 -0.18976495 -0.16013357 -0.08542175 -0.23104498 -0.124718904 -0.14416644
-0.11775573 -0.35099316 -0.11601954 -0.23363721 -0.18076375 -0.16852018 -0.21073063 -0.27079928
-0.13350205 -0.16266882 -0.13847852 -0.19747838 -0.14650993 -0.20256041 -0.19832994 -0.100251764
-0.18014286 -0.1431796 -0.14751296 -0.17283818 -0.19895479 -0.12758099 -0.12016129 -0.15644276
-0.14446086 -0.20242988 -0.17418264 -0.16611692 -0.12610634 -0.15167023 -0.15187612 -0.15738297
-0.17627397 -0.16258232 -0.18709646 -0.18456422 -0.21554975 -0.13140932 -0.32895318 -0.16529667
-0.2265183 -0.19170348 -0.13286576 -0.137748 -0.22074845 -0.11933248 -0.16088164 -0.16120893
-0.13271351 -0.31278357 -0.32162914 -0.19497477 -0.16041788 -0.077838466 -0.15525998 -0.18840988
-0.16404241 -0.31219512 -0.1695399 -0.14379703 -0.16620037 -0.091480814 -0.13746266 -0.16847318
00000000: b1fb 2abe eb85 51be 0afd 0dbe 2a8f 39be
00000010: aab5 f3bd a8af b4bd af38 54be 4bac 42be
00000020: 576e 28be 77a5 3cbe d33b 0cbe f945 abbd
00000030: 8c6e 49be 4f54 2fbe 8652 3abe 640e 22be
00000040: e61c 12be 3c75 e6bd fdff 4ebe b5ce a4bd
00000050: a5dc 5fbe e24d b4bd 0efc 4dbd 3203 89bd
00000060: c31b 01be 4a8d 1dbe 3e59 c0bd 0aa4 43be
00000070: 02c0 ecbd 4e82 44be c294 39be 678c ffbd
00000080: 1629 27be 70ee 02be 4545 50be e702 4bbe
00000090: 26fb 69be 560a 5fbe 5aa9 92be 5501 15be
000000a0: 1ff5 4fbe 7b3c 2cbe 7297 0fbe 5fb1 27be
000000b0: 1051 ebbd 7cd8 cabd 063d d7bd 7a6b 20be
000000c0: 751e cebd dd6f 25be fb41 8cbe 759f 1fbe
000000d0: 2c38 51bd d6b2 27be 376c 8ebd 25d5 f6bd
000000e0: b9e3 40be 82a3 81be 16eb 2ebe 8332 37be
000000f0: 4887 74be dba8 21be 1b3f 1dbe 0d72 5ebe
00000100: fbce 3ebe 06bf f6bd fe93 1dbe 8696 6dbe
00000110: dd48 23be c418 18be 8b08 18be 04dd 23be
00000120: 7ee1 89be 0548 0fbe 1be1 53be 6522 1dbe
00000130: aaa9 63be 2453 debd 4749 33be 930b d9bd
00000140: e0c3 c0bd 1d3e b8bd ce75 febd 50cc e5bd
00000150: 5806 20be d32a 10be 7e00 84be 7a66 7ebe
00000160: eebe 0ebe 065a f1bd d14e 35be e1b0 4dbe
00000170: c7f8 19be 6d8e 47be 61ea 95bd b2cb 0bbe
00000180: 2c94 2ebe 1cc9 7fbe 2a7d 00be af49 b0bd
00000190: c687 59be 20fc 28be 4077 c9bd a738 4dbe
000001a0: 602a 2abe 40b0 57be aa1f 01be cb5b 07be
000001b0: 6ae0 12be 58f3 2dbe 5207 1bbe b898 0dbe
000001c0: 7f94 c2bd 72b2 0dbe 8fde d2bd eca6 bcbd
000001d0: e986 07be 22e5 cdbd 2560 e8bd 0fab b6bd
000001e0: ee8e f1bd b7ab e3bd d0f1 31be f876 3abe
000001f0: cc60 d3bd fc31 75be 37c5 32be 61e1 71be
00000200: 5822 14be f986 2ebe 3496 cdbd 6faa ffbd
00000210: 8574 83be b072 0abe d003 7fbe d13b 52be
00000220: 61cc 86be 221e 24be 30ce f1bd f994 4dbe
00000230: c882 48be 5be5 00be 8ad5 0cbe 8e61 e6bd
00000240: 473f 46be aa0d 80be 9a6f 8ebe 3b9c 4bbe
00000250: 957b babd e9de aebd c0d1 f5bd c923 4bbe
00000260: 176e bcbd 9d8e 3cbe 37b3 2fbe 53c9 fbbd
00000270: 6235 48be c39e 22be 6ce9 29be e43f 21be
00000280: 16bb 89bd 5571 3cbe 593b f0bd 2f0a 45be
00000290: 3c00 43be d36f 18be 17c7 16be 6c51 c4bd
000002a0: 0e20 8dbe 0fed 4fbe 0d05 dfbd 6f2c c5bd
000002b0: 4ca4 44be 36f3 37be a511 e7bd f839 12be
000002c0: f6a8 2ebe 83fa 31be 0ae8 bbbd 4d66 d6bd
000002d0: dcde 06be ce89 1bbe 9613 2cbe 4408 72be
000002e0: 10b9 40bd c399 b1bd be51 42be 0efa 23be
000002f0: 99f1 aebd 0e97 6cbe a06c ffbd 5ea0 13be
00000300: eb29 f1bd 60b5 b3be a79b edbd 983e 6fbe
00000310: 221a 39be 8e90 2cbe c5c9 57be 34a6 8abe
00000320: c3b4 08be a892 26be 50cd 0dbe c637 4abe
00000330: b306 16be ff6b 4fbe 0117 4bbe cc50 cdbd
00000340: 5f77 38be ac9d 12be a30d 17be 7efc 30be
00000350: ceba 4bbe 97a4 02be 1f17 f6bd 8832 20be
00000360: 8ced 13be c749 4fbe ef5c 32be 8e1a 2abe
00000370: 0522 01be 714f 1bbe 6a85 1bbe 0029 21be
00000380: 2a81 34be fb7b 26be 3796 3fbe 67fe 3cbe
00000390: 13b9 5cbe 2a90 06be 8d6c a8be 8843 29be
000003a0: 6af4 67be eb4d 44be f60d 08be d00d 0dbe
000003b0: e20b 62be 9664 f4bd 28be 24be f413 25be
000003c0: 0de6 07be 2b25 a0be 93ac a4be 77a7 47be
000003d0: 9644 24be c669 9fbd 79fc 1ebe 85ee 40be
000003e0: bcfa 27be 0ad8 9fbe de9b 2dbe 873f 13be
000003f0: 6e30 2abe 4b5a bbbd 03c3 0cbe 3c84 2cbe

push.7.bias f4 [96]
-0.2850851 -0.1890349 -0.33054286 -0.29769573 -0.33941853 -0.2816156 -0.225447 -0.2772886
-0.1766387 0.09118391 -0.20783295 -0.25049317 -0.24007466 -0.21468455 -0.27991953 -0.33793718
-0.23215804 -0.22757487 -0.3058933 -0.23166232 -0.1830369 -0.24521421 -0.17115368 -0.1664178
-0.21636686 -0.2478103 0.067225054 -0.3065765 -0.27441058 -0.24828988 -0.22758505 -0.3252384
-0.31164336 -0.19612384 -0.30338863 -0.36400533 -0.22788763 -0.24336582 -0.15510178 -0.15288746
-0.20688021 -0.2509704 -0.3049651 -0.22367907 -0.1992339 -0.12355893 -0.19232264 -0.2320312
-0.20691054 -0.26273674 -0.19634241 -0.26367813 -0.2885496 -0.28269544 -0.32656747 -0.28710338
-0.15790856 -0.28343946 -0.2532145 -0.2870202 -0.2504178 -0.15491281 -0.21894863 -0.17630854
-0.26062772 -0.28694093 -0.2865111 -0.15081407 -0.26865083 -0.23755927 -0.25853842 -0.31329703
-0.21510288 -0.20715177 -0.2459759 -0.2955829 -0.23589338 -0.18612029 -0.05633846 -0.19451904
-0.20525523 -0.23839118 -0.31460735 -0.19056976 -0.27726296 0.0056045973 -0.2830093 -0.33597365
-0.2970983 -0.3371253 -0.283503 0.02165053 -0.3163569 -0.21159695 -0.32569662 -0.20234436
00000000: adf6 91be 5d92 41be ea3c a9be 936b 98be
00000010: 44c8 adbe ec2f 90be 94db 66be c5f8 8dbe
00000020: c6e0 34be a1be ba3d 29d2 54be a440 80be
00000030: 22d6 75be 44d6 5bbe 9d51 8fbe 1a06 adbe
00000040: d6ba 6dbe 6309 69be 0c9e 9cbe e338 6dbe
00000050: 066e 3bbe 6f19 7bbe e942 2fbe 6e69 2abe
00000060: 468f 5dbe fcc1 7dbe 4aad 893d 98f7 9cbe
00000070: 8b7f 8cbe b43f 7ebe 0e0c 69be a685 a6be
00000080: b88f 9fbe b0d4 48be c155 9bbe e85e babe
00000090: 605b 69be e434 79be 00d3 1ebe 888e 1cbe
000000a0: 68d8 53be 317f 80be 6324 9cbe 200c 65be
000000b0: f903 4cbe 770c fdbd 3af0 44be 9699 6dbe
000000c0: 5be0 53be 6e85 86be fc0d 49be d200 87be
000000d0: c6bc 93be 75bd 90be da33 a7be 37ff 92be
000000e0: c8b2 21be fa1e 91be 55a5 81be 50f4 92be
000000f0: c336 80be 77a1 1ebe 1234 60be 3a8a 34be
00000100: ff70 85be ece9 92be 95b1 92be 016f 1abe
00000110: 9a8c 89be bd42 73be 265f 84be 7868 a0be
00000120: ee43 5cbe 981f 54be 1be1 7bbe a456 97be
00000130: 098e 71be 5196 3ebe 28c3 66bd 0030 47be
00000140: 6d2e 52be d11c 74be 3714 a1be b824 43be
00000150: 69f5 8dbe c5a6 b73b 98e6 90be bd04 acbe
00000160: 451d 98be b09b acbe 4e27 91be 745c b13c
00000170: 88f9 a1be dfac 58be b5c1 a6be 5c33 4fbe

push.9.weight f4 [48, 96]
0.10120099 0.10359988 0.08320541 0.12787373 0.08363886 0.077479996 0.12702756 0.043783903
0.050097033 0.2711602 0.1021156 0.08991587 0.08960848 0.1126474 0.09363274 0.03504329
0.06440387 0.070040755 0.041752633 0.11626898 0.09103423 0.10827227 0.049888056 0.11313798
0.053910177 0.040276855 0.20935147 0.08848718 0.038286313 0.12014357 0.11832804 0.066794775
0.0057322574 0.114306964 0.09771231 0.0017480119 0.08664806 0.09008043 0.1348869 0.11872183
0.08156945 0.058238648 0.027280485 0.029616524 0.1207739 0.16856064 0.090463676 0.10716534
0.035490774 0.035760608 0.14419778 0.071074866 0.06859993 0.09855067 0.01968914 0.073459655
0.1467049 0.07535042 0.050805453 0.097242504 0.09733701 0.120635495 0.12917365 0.07630553
0.028580593 0.08853501 -0.009231678 0.08162431 0.019863218 0.08368788 0.09208256 0.06659552
0.09523744 0.14699489 0.06904133 0.050910097 0.027106827 0.1496831 0.21474999 0.08428652
0.12978604 0.047990285 0.09978769 0.08215782 0.029181989 0.19984275 0.05499706 0.07431115
0.07627073 0.028978331 0.042425934 0.26429787 0.08501294 0.10052005 0.050349932 0.098375715
0.008197519 -0.055895604 0.03828289 0.06298431 0.071186006 0.020103455 0.026762033 -0.054979756
0.0097691445 -0.0053579076 0.02218924 -0.047636986 -0.011861851 -0.022372376 -0.024555352 0.0570505
-0.023199575 0.028275762 0.055064984 0.008202611 -0.012141614 -0.03512443 0.0043698633 -0.047525175
0.049390066 0.036754284 0.0023473194 0.0071224566 -0.046127647 -0.04532218 0.058128633 0.0048956415
0.026982127 0.05512687 -0.018102344 -0.029004397 -0.011050489 -0.03547703 -0.0133965155 -0.019434167
-0.052676734 -0.060399603 0.021063829 -0.05814101 -0.0062310374 0.052025497 0.04341645 0.06557708
0.0024139022 -0.0396403 -0.034315836 -0.03179676 -0.022182457 0.07415414 0.043303937 0.0624927
0.050634053 -0.036605213 -0.010127566 0.044540167 0.048348892 0.021189136 -0.017426025 -0.047513384
-0.023168372 -0.035081692 0.007079788 -0.04263499 -0.028218323 0.009708352 0.06910129 -0.008070616
0.031095775 0.058246892 -0.04334931 -0.026411643 -0.05137789 -0.01935299 -0.024640422 -0.008872729
-0.019403394 0.014481952 0.052311577 -0.028822687 0.014108824 -0.014670775 -0.043011997 0.016158134
0.02391986 -0.038282316 0.009679632 0.0059042284 0.0011457116 0.020239474 -0.052733846 -0.03801327
0.05872873 -0.04292682 0.019329581 0.034996588 -0.025768047 0.060427 -0.012973935 -0.046678558
-0.033378918 -0.010294357 -0.030662797 -0.03036485 0.02033401 -0.006930104 0.02165225 0.058792554
-0.04931639 -0.043120585 0.012617678 0.008688334 -0.037790887 -0.013346467 -0.058730096 0.05455893
-0.01149642 0.055198874 0.002346722 0.0018789131 -0.0014251856 -0.055875663 -0.01523433 0.05656012
0.0054567605 -0.028341144 0.023256881 -0.022832422 0.04329872 -0.0389999 0.008537267 -0.0015214717
-0.021500338 0.02913878 -0.02566194 -0.03204998 0.01950085 0.024481319 0.039579306 -0.059620205
-0.03273748 -0.019169457 0.014732064 -0.068006344 0.026902433 0.051510986 -0.01655299 -0.056878027
0.056414623 -0.057323463 -0.042252067 0.02065593 -0.016622366 0.034227517 -0.023564087 -0.04176834
00000000: 7742 cf3d 2d2c d43d 9967 aa3d 55f1 023e
00000010: da4a ab3d d5ad 9e3d 8313 023e c056 333d
00000020: 8c32 4d3d 82d5 8a3e fc21 d13d d025 b83d
00000030: a784 b73d aeb3 e63d 86c2 bf3d 8e89 0f3d
00000040: 2de6 833d 8771 8f3d cf04 2b3d 6e1e ee3d
00000050: 2870 ba3d dabd dd3d 6b57 4c3d e3b4 e73d
00000060: ebd0 5c3d 58f9 243d 3b60 563e c438 b53d
00000070: 1cd2 1c3d d50d f63d f955 f23d b3cb 883d
00000080: a9d5 bb3b c519 ea3d 641d c83d 8c1d e53a
00000090: 8a74 b13d 177c b83d cb1f 0a3e 6e24 f33d
000000a0: e20d a73d a68b 6e3d 537b df3c 5a9e f23c
000000b0: 4e58 f73d 299b 2c3e 0545 b93d 8079 db3d
000000c0: c65e 113d b779 123d 95a8 133e b38f 913d
000000d0: 1f7e 8c3d efd4 c93d 1f4b a13c 0472 963d
000000e0: cf39 163e 5251 9a3d 6119 503d 1427 c73d
000000f0: a058 c73d be0f f73d 1946 043e 1346 9c3d
00000100: d921 ea3c d851 b53d 7740 17bc a52a a73d
00000110: 30b8 a23c 8d64 ab3d c895 bc3d 3b63 883d
00000120: d90b c33d d485 163e 8a65 8d3d 1b87 503d
00000130: 230f de3c 8746 193e 6ce7 5b3e 699e ac3d
00000140: a2e6 043e 7691 443d 7d5d cc3d 5c42 a83d
00000150: 110f ef3c 94a3 4c3e 9944 613d 7230 983d
00000160: d433 9c3d f763 ed3c d1c6 2d3d 0d52 873e
00000170: 441b ae3d 75dd cd3d bb3b 4e3d 3579 c93d
00000180: e34e 063c caf2 64bd 85ce 1c3d ebfd 803d
00000190: f8c9 913d 00b0 a43c 0d3c db3c 7432 61bd
000001a0: c30e 203c 6391 afbb 36c6 b53c 001f 43bd
000001b0: 3658 42bc 4646 b7bc 4e28 c9bc c9ad 693d
000001c0: 090d bebc 92a2 e73c d28b 613d 3e64 063c
000001d0: 9fed 46bc a2de 0fbd 1231 8f3b c2a9 42bd
000001e0: 3d4d 4a3d a98b 163d 7cd5 193b 7f63 e93b
000001f0: 58f0 3cbd c0a3 39bd 4a18 6e3d 9e6b a03b
00000200: 9f09 dd3c b6cc 613d 5e4b 94bc a19a edbc
00000210: 1c0d 35bc 5d50 11bd 0f7d 5bbc 6734 9fbc
00000220: 8fc3 57bd 9365 77bd 0d8e ac3c 4525 6ebd
00000230: bb2d ccbb b018 553d 73d5 313d 474d 863d
00000240: 8f32 1e3b de5d 22bd c38e 0cbd 523d 02bd
00000250: fcb7 b5bc 20de 973d 785f 313d 58f8 7f3d
00000260: a765 4f3d 59ef 15bd 17ee 25bc c06f 363d
00000270: 7d09 463d d794 ad3c 06c1 8ebc 659d 42bd
00000280: 99cb bdbc d2b1 0fbd 91fd e73b 07a2 2ebd
00000290: 1d2a e7bc c80f 1f3c fa84 8d3d 9e3a 04bc
000002a0: 91bc fe3c 4b94 6e3d 0c8f 31bd 3b5d d8bc
000002b0: 9f71 52bd 298a 9ebc b6da c9bc ec5e 11bc
000002c0: def3 9ebc b645 6d3c aa44 563d 8e1d ecbc
000002d0: b228 673c b15d 70bc 592d 30bd 105e 843c
000002e0: 95f3 c33c ebcd 1cbd 5297 1e3c 4278 c13b
000002f0: b42b 963a 41cd a53c 72ff 57bd cdb3 1bbd
00000300: 898d 703d 09d4 2fbd 1259 9e3c 9558 0f3d
00000310: 8317 d3bc 4d82 773d a190 54bc 0432 3fbd
00000320: 55b8 08bd aaa9 28bc 8c30 fbbc b5bf f8bc
00000330: 8293 a63c ed15 e3bb 0f60 b13c 76d0 703d
00000340: fcff 49bd 369f 30bd 61ba 4e3c 8459 0e3c
00000350: 9eca 1abd 24ab 5abc f88e 70bd 2f79 5f3d
00000360: 7b5b 3cbc 3718 623d 76cb 193b dd45 f63a
00000370: 4bcd baba e1dd 64bd 6999 79bc 96ab 673d
00000380: a0ce b23b b02b e8bc 3785 be3c 0f0b bbbc
00000390: 005a 313d 5cbe 1fbd e5df 0b3c 1e6c c7ba
000003a0: 7a21 b0bc 73b4 ee3c fd38 d2bc d746 03bd
000003b0: 3fc0 9f3c 0c8d c83c e91d 223d 5134 74bd
000003c0: bc17 06bd 4409 9dbc c15e 713c e946 8bbd
000003d0: 7e62 dc3c 2ffd 523d 239a 87bc eff8 68bd
000003e0: 0513 673d 02cc 6abd 8110 2dbd a036 a93c
000003f0: a12b 88bc 2732 0c3d 7909 c1bc 4715 2bbd

push.9.bias f4 [48]
0.19299017 0.0002260902 -0.03383178 -0.11682092 0.006425781 -0.010730235 -0.0072282804 0.060364943
-0.022966255 0.016645636 0.028410016 0.0019940191 0.016534321 -0.0022487475 -0.053704347 0.0046854885
-0.006411134 0.0009719147 -0.034663264 -0.01238564 0.0073294896 0.002243646 0.01835314 0.009507524
-0.020341098 -0.006569419 0.03919277 0.027949814 0.024757257 0.006309115 -0.00049043924 -0.0046893456
0.016984573 0.0022193468 -0.0034462158 0.00891118 0.022551278 0.0255756 0.035644826 -0.0034933665
-0.038640417 0.02429872 0.012131137 0.023896996 -0.022511858 -0.008588954 -0.036711358 0.024015386
00000000: 379f 453e a012 6d39 3193 0abd ce3f efbd
00000010: 5c8f d23b decd 2fbc 36db ecbb 3b41 773d
00000020: ba23 bcbc 6e5c 883c 1fbc e83c 17ae 023b
00000030: fc72 873c b95f 13bb 17f9 5bbd ba88 993b
00000040: 7d14 d2bb 17c8 7e3a 11fb 0dbd 24ed 4abc
00000050: 372c f03b 220a 133b 5359 963c 72c5 1b3c
00000060: 60a2 a6bc 4844 d7bb 9988 203d 02f7 e43c
00000070: bbcf ca3c b1bc ce3b d290 00ba 15a9 99bb
00000080: 3b23 8b3c 7672 113b e8d9 61bb 3300 123c
00000090: 75bd b83c ec83 d13c 4f00 123d f7f0 64bb
000000a0: 6a45 1ebd 1c0e c73c adc1 463c a2c3 c33c
000000b0: ca6a b8bc afb8 0cbc a65e 16bd eabb c43c

push.10.weight f4 [1, 48]
0.19242793 8.667902e-05 0.0054717036 -0.11665418 -0.0002418635 0.0011234254 0.0004108883 -0.012378268
0.0022956638 -0.0014609209 -0.005692571 -0.00066546677 -0.0016857269 0.00017077525 0.010854516 0.00033350752
0.00020207891 0.00043401725 0.007570234 0.0013901105 -0.0003694957 0.0005625286 -0.003356414 -0.00054233766
0.0040346924 0.0005615508 -0.007325158 -0.0056408853 -0.0027500323 -0.0002145374 0.037762776 1.247952e-05
-0.0016752024 -0.0005894839 0.00085986196 2.7232929e-05 -0.0030112497 -0.0052969824 -0.006889741 -0.00022947128
0.008534957 -0.0036558986 -0.0010473036 -0.0030819953 0.0019556629 0.0008768109 0.0073518637 -0.003131599
00000000: d40b 453e 72c7 b538 fa4b b33b 63e8 eebd
00000010: bd9c 7db9 e73f 933a 7e6c d739 38ce 4abc
00000020: d972 163b 5f7c bfba bf88 babb b872 2eba
00000030: 9cf3 dcba 2212 3339 24d7 313c 9fda ae39
00000040: 25e5 5339 cf8c e339 ba0f f83b 5e34 b63a
00000050: e0b8 c1b9 a876 133a 48f7 5bbb aa2b 0eba
00000060: 7435 843b 0935 133a e107 f0bb 2dd7 b8bb
00000070: e339 34bb 72f5 60b9 24ad 1a3d 215f 5137
00000080: 7792 dbba 9887 1aba 5c68 613a 4572 e437
00000090: 6358 45bb 4f92 adbb 56c3 e1bb 3a9e 70b9
000000a0: 34d6 0b3c cd97 6fbb ad45 89ba 4dfb 49bb
000000b0: 942a 003b c9d9 653a e7e7 f03b 833b 4dbb
